p2/1-AprendizajeFederado/final_model.pt (torch, 440453 bytes, 6 tensors)

fc1.weight f4 [128, 784]
0.019155469 0.00062267686 -0.015654698 -0.016218806 -0.01022822 0.0286052 0.023907315 0.021820711
-0.012062635 -0.0076122973 0.061018735 0.052458253 -0.0014442452 -0.056377508 -0.004843001 0.0024274564
0.050787527 -0.004480548 -0.04987051 -0.035719506 0.027990583 0.030338438 0.028652582 0.040274918
0.032359548 0.029961327 0.0017817761 0.017432727 0.025140759 -0.027766058 0.014583906 0.03260053
0.035187677 -0.029639265 0.004265296 0.012478774 -0.007881247 0.035663158 0.0054555773 0.01771602
0.016754426 0.012552345 -0.027333315 -0.022308804 0.01762981 -0.011799749 0.024031818 0.016712876
-0.049459312 0.002252981 -0.007030017 -0.019385781 -0.020912258 0.009316497 -0.014242953 -0.027773485
0.028078493 0.03899098 0.02383997 0.013256179 -0.019059084 -0.029014207 0.005050256 -0.014037861
0.07657093 0.057439134 0.0074815247 0.015834311 -0.072281435 -0.030178243 -0.03799762 -0.058834027
0.0227897 0.013413975 0.009320555 0.01650314 -0.0024412386 -0.06778492 0.015368713 0.028987236
0.0037109524 -0.017461048 0.017802216 -0.021949489 0.030728348 -0.008213356 0.002909879 0.008733715
0.025036763 -0.03251427 0.0060625765 -0.0022831883 0.06555699 0.04800367 -0.0055889897 0.032638963
-0.043461166 -0.020973854 -0.010728103 0.034749076 0.023157805 0.028643774 -0.02378973 0.0063787955
-0.0008381965 -0.0060163545 -0.06465283 -0.00564088 0.032964703 -0.022816978 0.0149201285 0.029276447
0.010546261 -0.02838146 0.031248387 -0.022750007 0.0118911555 -0.0047012297 0.008651509 -0.011856364
0.017229605 0.011055389 0.033754647 0.032686364 -0.005217062 -0.015194232 0.05453328 -0.01449338
0.027597655 0.0016690732 -0.03913655 -0.03546445 -0.0022390545 -0.03686083 -0.06160156 -0.016685376
-0.00032556453 0.027469583 0.02084598 0.036101893 0.034923553 -0.008744289 -0.007518273 -0.023669032
-0.0023577623 -0.010040617 0.01853279 0.017279528 0.03781995 0.040327534 0.046288464 0.04226481
-0.02078229 -0.04121606 -0.04816602 0.036027707 -0.010165791 0.010549014 -0.03265512 -0.0072214575
0.0047579277 -0.009905923 -0.0036191535 -0.03795387 0.011419924 -0.010302274 0.023497943 -0.020286104
-0.0071994695 0.02872391 -0.0016715303 0.037768677 -0.029128792 -0.020571355 -0.015766645 -0.0059722695
-0.015452404 0.026894215 -0.0059149675 -0.015534151 0.0013875888 -0.009190315 -0.023057848 0.0067547634
0.032055024 -0.025804088 0.03133496 -0.006372488 -0.021553254 -0.034982204 -0.048225045 0.01320683
-0.024891056 0.02502732 0.037634715 -0.0100530805 -0.0014523654 0.029303532 0.006695797 -0.03021875
-0.0026485813 -0.013350256 -0.035210986 0.025854088 0.015004098 0.015930554 0.021961495 -0.023204427
0.026585283 0.00024159055 0.0031914066 0.017570516 -0.024178196 0.041525003 -0.024008028 0.021658497
-0.00812638 0.008258953 -0.019452384 -0.012459412 -0.016529009 -0.039583728 -0.0043379976 0.010514403
-0.00849024 -0.021079287 -0.031715766 0.005368823 -0.03679298 -0.054706752 -0.008435313 0.033870988
-0.054199867 -0.029686285 0.0066601783 0.029907983 -0.021672767 0.018881835 0.017660614 -0.034693673
0.008337625 0.023622803 -0.055106588 -0.05961625 0.0306007 0.023132779 -0.010710891 -0.043949716
-0.019274002 -0.029167501 0.010390348 0.039852746 -0.011210816 -0.003734704 0.028679281 -0.034330543
00000000: eeeb 9c3c 233b 233a 483e 80bc 4ddd 84bc
00000010: 4494 27bc 7455 ea3c 46d9 c33c 59c1 b23c
00000020: 5ca2 45bc 9470 f9bb c8ee 793d 77de 563d
00000030: d44c bdba 1aec 66bd 09b2 9ebb f615 1f3b
00000040: 9506 503d 90d1 92bb 0545 4cbd 9e4e 12bd
00000050: 824c e53c 5188 f83c d2b8 ea3c 50f7 243d
00000060: 728b 043d 7571 f53c 7c8a e93a 14cf 8e3c
00000070: fef3 cd3c a575 e3bc 56f1 6e3c 2288 053d
00000080: f420 103d 0bce f2bc e5c3 8b3b c673 4c3c
00000090: 5920 01bc 8813 123d b3c4 b23b 3021 913c
000000a0: 9440 893c 5aa8 4d3c 1eea dfbc f4c0 b6bc
000000b0: 646c 903c bc53 41bc 60de c43c 71e9 883c
000000c0: d995 4abd c0a6 133b 0f5c e6bb eece 9ebc
000000d0: 2f50 abbc 38a4 183c 465b 69bc 3885 e3bc
000000e0: de04 e63c 01b5 1f3d 0a4c c33c 7230 593c
000000f0: cc21 9cbc 34af edbc 9e7c a53b 0eff 65bc
00000100: 38d1 9c3d 4c45 6b3d 9427 f53b f5b6 813c
00000110: 4a08 94bd 5d38 f7bc 64a3 1bbd f3fb 70bd
00000120: 77b1 ba3c 4ac6 5b3c 3eb5 183c 9831 873c
00000130: 30fd 1fbb d2d2 8abd 0ecd 7b3c a476 ed3c
00000140: 7333 733b 790a 8fbc f4d5 913c 6acf b3bc
00000150: 04ba fb3c 5091 06bc abb3 3e3b db17 0f3c
00000160: e619 cd3c af2d 05bd 94a8 c63b 8ba1 15bb
00000170: be42 863d 7f9f 443d d823 b7bb 6fb0 053d
00000180: 5604 32bd 5cd1 abbc edc4 2fbc 0c55 0e3d
00000190: 70b5 bd3c 59a6 ea3c aee2 c2bc 3705 d13b
000001a0: 6aba 5bba d724 c5bb b468 84bd 22d7 b8bb
000001b0: ff05 073d acea babc 8e73 743c 29d5 ef3c
000001c0: 3aca 2c3c 3c80 e8bc 9efc ff3c 395e babc
000001d0: 1fd3 423c c60c 9abb 0fbf 0d3c 3241 42bc
000001e0: 1a25 8d3c aa21 353c 5042 0a3d 23e2 053d
000001f0: e3f3 aabb 3af1 78bc 4a5e 5f3d a475 6dbc
00000200: 7a14 e23c cec4 da3a a64d 20bd 2c43 11bd
00000210: 1abd 12bb 62fb 16bd eb51 7cbd c5af 88bc
00000220: 88b0 aab9 e407 e13c 30c5 aa3c 94df 133d
00000230: 000c 0f3d 3544 0fbc d85b f6bb 8fe5 c1bc
00000240: b084 1abb 6681 24bc 14d2 973c cc8d 8d3c
00000250: 18e9 1a3d 7c2e 253d f998 3d3d de1d 2d3d
00000260: 9f3f aabc 2cd2 28bd bc49 45bd ca91 133d
00000270: 6b8e 26bc c6d5 2c3c 60c1 05bd faa1 ecbb
00000280: 64e8 9b3b 744c 22bc 522f 6dbb 8475 1bbd
00000290: a21a 3b3c deca 28bc c27e c03c 0b2f a6bc
000002a0: 87e9 ebbb 684e eb3c 4017 dbba 54b3 1a3d
000002b0: 819f eebc 4285 a8bc 0d29 81bc 07b3 c3bb
000002c0: 142c 7dbc 4251 dc3c 58d2 c1bb f482 7ebc
000002d0: c1df b53a fa92 16bc d0e3 bcbc 1057 dd3b
000002e0: 214c 033d 1863 d3bc 1659 003d 4ed0 d0bb
000002f0: 7390 b0bc 8049 0fbd a087 45bd 7661 583c
00000300: 54e8 cbbc 1806 cd3c dc26 1a3d adb5 24bc
00000310: 4c5d beba f60d f03c 6b68 db3b 508d f7bc
00000320: d293 2dbb 08bb 5abc 6539 10bd f4cb d33c
00000330: c0d3 753c cb80 823c 98e8 b33c 3617 bebc
00000340: 61c9 d93c 7853 7d39 eb26 513b 0bf0 8f3c
00000350: 5a11 c6bc 1f16 2a3d 7cac c4bc 296d b13c
00000360: 8224 05bc 8f50 073c 9b5a 9fbc 9022 4cbc
00000370: d867 87bc 8c22 22bd c325 8ebb 9a44 2c3c
00000380: a61a 0bbc 78ae acbc 64e8 01bd f4ec af3b
00000390: 3cb4 16bd 3014 60bd 4434 0abc 4ebc 0a3d
000003a0: ae00 5ebd a730 f3bc a03d da3b 9601 f53c
000003b0: 168b b1bc 14ae 9a3c feac 903c f41a 0ebd
000003c0: 899a 083c 9c84 c13c 72b7 61bd 2b30 74bd
000003d0: 52ae fa3c f480 bd3c bc7c 2fbc 9e04 34bd
000003e0: 83e4 9dbc aff0 eebc 473c 2a3c a23c 233d
000003f0: 92ad 37bc f0c1 74bb d0f0 ea3c 2f9e 0cbd

fc1.bias f4 [128]
-0.036748458 -0.003130921 -0.0012759515 -0.03494861 0.005219076 0.006040109 -0.03141697 -0.030476244
-0.021494366 0.041083217 -0.024124209 -0.013430847 0.025845293 -0.035265062 0.0039181453 -0.0014509747
-0.019972991 0.029764898 0.001721268 -0.0017396957 -0.020153468 0.0045057186 0.024225196 0.016248595
-0.007234595 -0.014913179 -0.018110257 0.020492427 -0.01588007 0.027790593 0.0131671 -0.024273172
-0.024732497 -0.022233699 -0.009611931 0.007717576 0.036241516 0.008516912 0.03451184 -0.02761551
-0.029004857 -0.040665887 0.029619109 0.026413526 -0.031106612 0.03082745 0.0029224907 0.013690554
-0.007482728 -0.028010588 -0.0005640279 -0.0049020494 -0.0039940923 -0.031430326 -0.0043505 0.006330933
0.0134533 0.022401549 0.0251356 0.014369622 0.012797326 0.031103393 -0.0039418424 -0.0355801
-0.021386303 0.029191148 -0.026031373 -0.012261005 0.008180942 -0.015042804 0.012652891 0.026422905
-0.029813543 0.012333378 0.031570606 0.01385906 -0.0116567 -0.007917767 -0.009642655 0.03213506
0.014735023 -0.029816722 -0.00082519 -0.018141218 -0.015231119 0.018462595 -0.0017836889 0.015523352
0.013832444 -0.027727602 0.018840626 0.014659964 0.009687563 0.013024942 0.00026106744 -0.012584211
-0.038091503 0.011914777 -0.03687624 -0.0018693289 0.030365739 -0.02285619 0.033182777 -0.022167515
-0.017278522 -0.0019672317 0.009879345 0.03925351 0.02910041 -0.039820112 0.021441117 0.012531323
-0.011781727 0.017346784 0.015640851 -0.03025584 0.016546128 -0.012218192 -0.036588512 -0.005991408
0.0010574823 -0.03140192 -0.034212295 0.014570871 0.011759569 -0.02229589 0.03961856 0.0066345665
00000000: 8d85 16bd 2330 4dbb d43d a7ba 4626 0fbd
00000010: c804 ab3b 1bec c53b 15af 00bd 51a9 f9bc
00000020: f414 b0bc e046 283d 22a0 c5bc 0e0d 5cbc
00000030: 82b9 d33c 1972 10bd c963 803b a22e beba
00000040: 669e a3bc 84d5 f33c 2c9c e13a 8006 e4ba
00000050: e318 a5bc b5a4 933b eb73 c63c c61b 853c
00000060: 2e10 edbb 6856 74bc f65b 94bc bcdf a73c
00000070: ec16 82bc 19a9 e33c d2ba 573c 88d8 c6bc
00000080: ce9b cabc 7223 b6bc 5c7b 1dbc b8e3 fc3b
00000090: fc71 143d 858a 0b3c 4a5c 0d3d ec39 e2bc
000000a0: 989b edbc 4691 26bd c6a3 f23c 2e61 d83c
000000b0: 4bd3 febc d989 fc3c 4287 3f3b 584e 603c
000000c0: ac31 f5bb 7676 e5bc 46db 13ba 5fa1 a0bb
000000d0: e0e0 82bb 16bd 00bd a48e 8ebb b773 cf3b
000000e0: 3b6b 5c3c 7483 b73c 2ce9 cd3c 906e 6b3c
000000f0: e0ab 513c 8bcc fe3c 922a 81bb 70bc 11bd
00000100: 5432 afbc 4622 ef3c bf3f d5bc 62e2 48bc
00000110: 5c09 063c 1876 76bc 124e 4f3c d974 d83c
00000120: 883b f4bc f011 4a3c 2e50 013d 1c11 633c
00000130: befb 3ebc 86b9 01bc 3afc 1dbc 0da0 033d
00000140: 2a6b 713c 3342 f4bc 9051 58ba e49c 94bc
00000150: f18b 79bc de3e 973c abca e9ba a855 7e3c
00000160: 7aa1 623c ff24 e3bc a857 9a3c 5830 703c
00000170: 96b8 1e3c 9166 553c e1df 8839 022e 4ebc
00000180: d605 1cbd 3236 433c 8a0b 17bd 4504 f5ba
00000190: 92c1 f83c e83c bbbc aaea 073d a698 b5bc
000001a0: b08b 8dbc acec 00bb fadc 213c 4ac8 203d
000001b0: fc63 ee3c 6a1a 23bd 48a5 af3c 2e50 4d3c
000001c0: 2508 41bc d81a 8e3c 3e21 803c 18db f7bc
000001d0: bf8b 873c d02e 48bc d6dd 15bd 9353 c4bb
000001e0: 389b 8a3a 4d9f 00bd 3122 0cbd aaba 6e3c
000001f0: 35ab 403c dfa5 b6bc 1247 223d c766 d93b

fc2.weight f4 [64, 128]
0.046325825 -0.062449988 -0.00036219647 -0.029289735 0.08812475 -0.0368223 -0.020181805 0.007764591
-0.03151548 0.049909785 0.083202966 0.0040926216 0.053169668 0.033027068 0.060544416 -0.022105426
0.007722806 0.008662468 0.085576236 -0.0029932333 0.041938536 0.0017347978 -0.027169775 -0.12703344
0.0109075215 -0.07700512 -0.08751887 -0.087601386 -0.0644449 -0.07029958 0.13325204 0.0036428983
-0.08418074 0.15853986 -0.09698209 0.07016964 0.08064227 0.032939233 0.08199203 -0.106561035
-0.032099944 -0.093609445 0.098829046 0.09536245 -0.05499552 -0.03745163 -0.0069806213 -0.07233088
0.18236837 -0.091677755 -0.07419506 0.13487634 0.01672592 -0.07607356 -0.002916953 -0.01939985
0.027172834 0.08151557 -0.09059087 0.0976864 0.02906672 0.03313955 0.003149915 0.057233654
-0.08728291 0.009778751 0.039775386 0.03639573 -0.1117466 0.10991422 0.08633122 -0.00054881116
-0.117399216 -0.022592861 -0.026199203 -0.110616565 -0.10423119 0.11714559 -0.042678565 0.041520625
0.069378935 -0.016498912 -0.047771808 -0.004020141 0.03548187 0.090494595 -0.11693913 0.0055499095
0.16587573 -0.06806466 0.0643798 0.017756281 0.15194279 -0.07803489 0.050664887 0.056766603
0.123872645 0.048796084 0.030911703 -0.08725338 0.06336079 0.028912412 0.05553624 0.058468215
0.08434042 -0.037676014 -0.07564598 0.13022314 0.07804847 -0.0258141 -0.008216143 0.1012326
-0.034763373 0.04063637 -0.0024414137 -0.04625658 0.15958187 0.09918321 -0.14535129 -0.07266584
0.13224868 -0.026942894 -0.034771062 0.09811501 0.008372251 -0.029167812 0.0017453651 0.013184525
-0.020984782 0.07897292 -0.10273139 0.06698253 -0.02216531 -0.060358092 -0.08999002 0.08541365
0.09791471 -0.10202537 0.04417979 -0.02144936 0.06171509 0.0029155025 -0.08058107 -0.0062466376
0.13155639 -0.01990959 0.0014108883 -0.09685303 0.014117306 0.012591256 0.009351658 0.11496876
-0.009025404 -0.05302625 0.035893492 0.08925417 -0.05124648 0.051989034 -0.05446389 -0.05709353
-0.029249791 -0.056539115 -0.04075644 0.0008587857 0.04550272 -0.04526665 -0.017754314 0.062393837
-0.009126902 0.100024 0.060867764 -0.004057959 -0.099027306 0.032940272 0.022806108 0.008437766
-0.12102464 0.0818397 -0.06600632 0.011535177 0.017249148 -0.05782638 0.107020035 -0.045421705
0.028839346 0.1040634 -0.052417353 -0.039204445 -0.08997393 -0.0387849 -0.0020068004 0.014481416
0.059207283 0.07922727 -0.067983076 -0.06277208 -0.04074689 -0.011744758 -0.064116515 -0.021930758
0.015404656 -0.07265919 -0.07581569 -0.07412143 -0.044237107 -0.04404047 0.013750998 -0.09384501
0.014888408 -0.08822048 -0.048833698 0.101392835 -0.10050516 0.044530515 0.0124298595 -0.028063308
-0.08648437 0.057255663 -0.024029817 0.020823732 -0.08970662 -0.008114817 -0.020187221 0.11328855
-0.08666674 0.06633128 0.06507699 0.032539684 -0.058579616 -0.031646993 -0.046563953 0.06622997
-0.061420474 0.06269612 -0.086904265 -0.09709027 0.062959574 -0.0041178004 0.034151662 0.10953297
0.007913479 -0.09744537 -0.01290295 0.0928496 -0.13449417 0.050882176 0.031351227 -0.10072624
-0.0036385723 -0.0049813567 -0.00039284234 -0.13022955 0.06640426 -0.03329841 -0.0687478 0.033794813
00000000: 26c0 3d3d 8fcb 7fbd 30e5 bdb9 07f1 efbc
00000010: c07a b43d fbd2 16bd 5054 a5bc 1c6e fe3b
00000020: 6016 01bd 346e 4c3d 5166 aa3d 661b 863b
00000030: 70c8 593d 6447 073d 6cfd 773d 7016 b5bc
00000040: 980f fd3b 06ed 0d3c 9842 af3d 1f2a 44bb
00000050: bec7 2b3d 2862 e33a 2693 debc 0e15 02be
00000060: 76b5 323c dcb4 9dbd 183d b3bd 5b68 b3bd
00000070: b0fb 83bd 3af9 8fbd 3973 083e b1bd 6e3b
00000080: f466 acbd 4658 223e 8c9e c6bd 1ab5 8f3d
00000090: c627 a53d 4aeb 063d 70eb a73d ac3c dabd
000000a0: 3b7b 03bd 4fb6 bfbd e266 ca3d 634d c33d
000000b0: fb42 61bd e166 19bd b2bd e4bb 3622 94bd
000000c0: c6be 3a3e 8cc1 bbbd 94f3 97bd 061d 0a3e
000000d0: cc04 893c 74cc 9bbd 5a2a 3fbb 6fec 9ebc
000000e0: 9099 de3c a3f1 a63d b587 b9bd cf0f c83d
000000f0: 541d ee3c 56bd 073d ce6e 4e3b d66d 6a3d
00000100: 62c1 b2bd 0e37 203c 84eb 223d b013 153d
00000110: 67db e4bd b51a e13d 6cce b03d 18de 0fba
00000120: 006f f0bd aa14 b9bc b69f d6bc f08a e2bd
00000130: 2a77 d5bd 07ea ef3d b8cf 2ebd 8811 2a3d
00000140: 8b16 8e3d ba28 87bc 5fac 43bd 63bb 83bb
00000150: 7055 113d 3b55 b93d c87d efbd 04dc b53b
00000160: 54db 293e 7c65 8bbd 8ed9 833d 9f75 913c
00000170: e496 1b3e c2d0 9fbd fc85 4f3d 1984 683d
00000180: f1b0 fd3d 67de 473d 8a3a fd3c e6b1 b2bd
00000190: 4dc3 813d b9d9 ec3c f879 633d 5e7c 6f3d
000001a0: acba ac3d 2a52 1abd 48ec 9abd 3759 053e
000001b0: e0d7 9f3d 1778 d3bc 009d 06bc 0a53 cf3d
000001c0: 0a64 0ebd 5372 263d 2000 20bb 8a77 3dbd
000001d0: 6e69 233e 9120 cb3d f8d6 14be d4d1 94bd
000001e0: 336c 073e 58b7 dcbc 1a6c 0ebd 86f0 c83d
000001f0: c42b 093c 56f1 eebc bcc4 e43a e803 583c
00000200: 47e8 abbc 8ebc a13d d664 d2bd 232e 893d
00000210: 0694 b5bc 0c3a 77bd b04c b8bd 5aed ae3d
00000220: 8287 c83d adf2 d0bd def5 343d 91b6 afbc
00000230: f6c8 7c3d 0412 3f3b b007 a5bd 98b0 ccbb
00000240: b8b6 063e 7019 a3bc 8eed b83a e25a c6bd
00000250: 464c 673c 8e4b 4e3c b237 193c be74 eb3d
00000260: 4adf 13bc 0e32 59bd 0e05 133d e4ca b63d
00000270: d4e7 51bd 74f2 543d 8715 5fbd e8da 69bd
00000280: 429d efbc 8f95 67bd 3af0 26bd 2220 613a
00000290: 0f61 3a3d 8669 39bd 7f71 91bc ae90 7f3d
000002a0: 0089 15bc 62d9 cc3d 7a50 793d a1f8 84bb
000002b0: d4ce cabd 61ec 063d e0d3 ba3c 8e3e 0a3c
000002c0: c4db f7bd 939b a73d 522e 87bd 0afe 3c3c
000002d0: 164e 8d3c 5bdb 6cbd 522d db3d 1c0c 3abd
000002e0: 7e40 ec3c 311f d53d 94b3 56bd d794 20bd
000002f0: 4044 b8bd eadc 1ebd 8684 03bb 7643 6d3c
00000300: 5683 723d e841 a23d b63a 8bbd a68e 80bd
00000310: 36e6 26bd 166d 40bc 854f 83bd 22a8 b3bc
00000320: cf63 7c3c 57ce 94bd 4245 9bbd facc 97bd
00000330: f831 35bd c863 34bd de4b 613c d031 c0bd
00000340: 82ee 733c f0ac b4bd d805 48bd 0ca7 cf3d
00000350: a6d5 cdbd a165 363d 9ca6 4b3c 06e5 e5bc
00000360: b81e b1bd ea84 6a3d 2eda c4bc 8896 aa3c
00000370: 1bb8 b7bd 02f4 04bc ac5f a5bc d403 e83d
00000380: 557e b1bd b2d8 873d 1647 853d 5548 053d
00000390: 2ef1 6fbd 47a0 01bd d8b9 3ebd 94a3 873d
000003a0: 0994 7bbd d366 803d ddfa b1bd 43d7 c6bd
000003b0: f3f0 803d 9dee 86bb 9de2 0b3d d252 e03d
000003c0: 89a7 013c 7091 c7bd e566 53bc ee27 be3d
000003d0: d7b8 09be d469 503d 256a 003d 8f49 cebd
000003e0: 1d75 6ebb a63a a3bb 68f6 cdb9 e55a 05be
000003f0: f5fe 873d ea63 08bd a6cb 8cbd 6e6c 0a3d

fc2.bias f4 [64]
0.0044434345 0.07631408 -0.048875436 0.071598664 0.031226575 0.009948958 0.06661689 0.060299303
0.067649335 0.027130464 -0.089659795 -0.03587287 0.06426071 -0.04148236 0.030558974 -0.07145079
-0.08136856 0.0051705455 0.054825645 -0.07176997 -0.058926433 0.0678744 0.10367902 0.007895243
-0.007574624 -0.021771967 0.04583448 0.08732844 0.031436868 0.03735615 -0.010994012 -0.02338234
-0.044307694 0.075137645 0.058012933 -0.054682 0.08156803 0.022898797 0.014397033 -0.08571225
-0.0016525724 0.046413172 0.09305403 0.07037611 -0.003350892 0.044125844 0.030080054 0.07047586
0.07700391 0.02523139 0.047132567 -0.013034484 0.048794832 0.15174496 0.016451716 -0.08697785
-0.06740611 0.081477925 0.09611808 0.12259901 -0.05119715 0.07097827 -0.06510647 0.019540647
00000000: 3b9a 913b 8e4a 9c3d 9c31 48bd 52a2 923d
00000010: e0ce ff3c f400 233c 706e 883d 67fc 763d
00000020: bc8b 8a3d b540 de3c 8e9f b7bd 6eef 12bd
00000030: 1e9b 833d 68e9 29bd d056 fa3c cb54 92bd
00000040: 8fa4 a6bd ae6d a93b db90 603d 22fc 92bd
00000050: d85c 71bd bc01 8b3d ab55 d43d 0d5b 013c
00000060: 8d34 f8bb 205b b2bc f0bc 3b3d 41d9 b23d
00000070: f2c3 003d c302 193d 3a20 34bc 528c bfbc
00000080: fc7b 35bd c4e1 993d f89e 6d3d 3cfa 5fbd
00000090: 240d a73d 4296 bb3c 88e1 6b3c e789 afbd
000000a0: 219b d8ba bd1b 3e3d 1c93 be3d 5a21 903d
000000b0: a49a 5bbb 4dbd 343d 726a f63c a655 903d
000000c0: 3ab4 9d3d 0fb2 ce3c 140e 413d 978e 55bc
000000d0: 17dd 473d 0863 1b3e c0c5 863c 7121 b2bd
000000e0: 370c 8abd e6dd a63d 8ed9 c43d 3115 fb3d
000000f0: 1ab4 51bd 0e5d 913d 8a56 85bd b513 a03c

fc3.weight f4 [10, 64]
0.037507392 -0.11499344 0.05995045 0.39271897 0.29034704 0.18404782 -0.01976128 -0.114627555
-0.011823881 0.1262014 0.13944948 0.20428202 0.060192697 0.025419427 0.038520366 0.083199024
0.046060175 0.32628518 0.066376984 0.030345034 0.02129059 -0.11518408 0.37052032 0.03599023
-0.011943961 -0.09538613 -0.1086745 0.011917638 -0.1283455 -0.16620465 -0.03627534 -0.040184338
0.33494243 -0.27422655 0.24394248 -0.09575704 -0.063446075 0.4237618 -0.09348142 -0.15439805
0.21894467 0.03764353 -0.08285219 0.2729867 0.06568647 0.062632054 -0.0950007 0.14259347
-0.08890862 -0.1063081 -0.24781209 0.053728465 -0.17353734 0.002548082 -0.10111268 -0.1414899
-0.12339595 -0.09082951 -0.019627197 -0.040958505 0.06597509 0.001235402 -0.03284316 0.26098615
-0.18391684 -0.11943587 -0.11795954 -0.11753046 -0.21409762 0.28170797 -0.06344758 -0.12225894
0.05870738 -0.014836939 -0.0035514839 -0.18482853 -0.07275866 0.06739667 -0.06854986 0.033520706
0.039587893 -0.022218566 -0.046115924 -0.11724252 0.07028733 0.17356846 -0.021577146 0.11000279
-0.18298613 -0.063078485 0.0848148 -0.07104889 -0.1340523 -0.16587609 -0.07996866 -0.08470461
-0.06593521 -0.15663868 -0.16682316 -0.015410666 0.059978995 -0.1733368 0.15926602 0.17786026
-0.13138674 0.22622634 0.047043376 0.06498881 0.09082426 -0.0923 0.07134182 0.17203404
-0.19428152 0.11964256 -0.10959339 0.020952825 0.27418694 -0.18541712 -0.11584287 0.05974097
0.0001162627 0.23148152 -0.093075454 -0.26811537 -0.050344255 -0.022349851 0.16024652 0.0034024855
-0.09978828 0.05649443 0.046368368 -0.18406275 0.11999185 0.10307564 -0.021229096 -0.13786617
-0.10759391 -0.13265808 0.06587368 -0.20158538 -0.026122358 -0.0038271872 0.20500602 0.13612118
0.07687381 0.14360347 0.08744936 -0.07369268 -0.047789127 -0.048560828 0.033852972 -0.07350515
-0.23598535 -0.008481457 0.00022930396 -0.13916239 0.21921173 0.17619827 -0.081442475 -0.040642038
0.1406872 -0.16818036 0.011397211 0.09677359 -0.09138486 -0.026663963 0.0454944 0.050092384
-0.06442788 0.063940324 0.03639127 -0.21813437 -0.048472896 0.07722883 -0.0839807 -0.116302475
0.06961485 0.34849107 -0.16125602 0.13540877 0.113492936 0.16664162 0.19742954 0.08199136
-0.050380632 -0.054513577 -0.15382496 0.1270358 -0.011451844 -0.13668874 0.032150887 0.18090343
-0.007348885 0.021478977 -0.14296839 -0.13985744 -0.09746586 0.047922693 0.09366444 -0.030415744
-0.089199856 -0.049132142 -0.0014333266 0.14227271 0.1661283 -0.04382918 -0.08562581 -0.04213368
-0.023236562 -0.10236031 0.13589615 0.037301853 -0.073684804 -0.07414942 -0.10771759 0.00972878
-0.20565169 -0.12161679 -0.13298237 -0.032941367 0.16776992 0.069716 -0.07017073 0.05481352
-0.09670976 0.12088367 -0.20125255 0.0985907 0.15948682 0.42000732 0.18518032 0.003412329
0.021638352 -0.030496836 -0.047638804 0.38178837 -0.1519605 0.12271598 -0.0179549 0.28272784
-0.24628024 -0.0077444594 0.1334283 0.09172224 -0.027909914 -0.22995064 0.031913668 0.014477469
-0.084381625 -0.12600712 -0.09456996 0.0021891026 -0.026390119 -0.082803704 0.023376383 0.4004516
00000000: 5aa1 193d ae81 ebbd 9a8e 753d 7612 c93e
00000010: 5ea8 943e 0877 3c3e 68e2 a1bc dac1 eabd
00000020: f4b8 41bc f13a 013e d8cb 0e3e 4e2f 513e
00000030: 9e8c 763d 673c d03c 88c7 1d3d 4064 aa3d
00000040: 98a9 3c3d da0e a73e a8f0 873d 2696 f83c
00000050: 9a69 ae3c a2e5 ebbd d7b4 bd3e 7e6a 133d
00000060: 9ab0 43bc ce59 c3bd bc90 debd 3242 433c
00000070: 016d 03be 8d31 2abe 7395 14bd 5598 24bd
00000080: 937d ab3e 6c67 8cbe 0fcc 793e 441c c4bd
00000090: 04f0 81bd 4ff7 d83e 3073 bfbd 861a 1ebe
000000a0: 0833 603e 1a30 1a3d 69ae a9bd eac4 8b3e
000000b0: a186 863d 3c45 803d ba8f c2bd 0604 123e
000000c0: b915 b6bd 10b8 d9bd 74c2 7dbe 6112 5c3d
000000d0: c6b3 31be b9fd 263b 2a14 cfbd bae2 10be
000000e0: 04b7 fcbd d204 babd 37c9 a0bc 1bc4 27bd
000000f0: f31d 873d 36ed a13a 8d86 06bd fa9f 853e
00000100: b254 3cbe cb9a f4bd c594 f1bd cfb3 f0bd
00000110: 683c 5bbe 073c 903e cef0 81bd e562 fabd
00000120: 2677 703d a216 73bc 03c0 68bb b143 3dbe
00000130: 7e02 95bd 4407 8a3d de63 8cbd 024d 093d
00000140: ea26 223d b603 b6bc 0de4 3cbd d91c f0bd
00000150: cef2 8f3d eebb 313e 8ec2 b0bc 2549 e13d
00000160: b760 3bbe 4b2f 81bd 62b3 ad3d 1582 91bd
00000170: 0245 09be 6cdb 29be 9cc6 a3bd 9c79 adbd
00000180: 0a09 87bd e465 20be b1d3 2abe 057d 7cbc
00000190: 89ac 753d 347f 31be a216 233e 0021 363e
000001a0: 3f8a 06be e1a7 673e 8eb0 403d da18 853d
000001b0: 1202 ba3d c807 bdbd a91b 923d b129 303e
000001c0: bcf1 46be 2907 f53d 8072 e0bd 42a5 ab3c
000001d0: 3b62 8c3e fcdd 3dbe 073f edbd f3b2 743d
000001e0: 10d2 f338 7e09 6d3e 589e bebd 6b46 89be
000001f0: c735 4ebd 0917 b7bc aa17 243e 3cfc 5e3b
00000200: cc5d ccbd b466 673d c2ec 3d3d f27a 3cbe
00000210: 49be f53d 5219 d33d a4e8 adbc ca2c 0dbe
00000220: 325a dcbd 85d7 07be c8e8 863d 666c 4ebe
00000230: 8efe d5bc 8cd1 7abb 19ed 513e 5a63 0b3e
00000240: 0470 9d3d ca0c 133e a618 b33d 30ec 96bd
00000250: 88be 43bd b8e7 46bd 6aa9 0a3d de89 96bd
00000260: 25a6 71be cff5 0abc 5071 7039 9680 0ebe
00000270: 0a79 603e 526d 343e 50cb a6bd 4478 26bd
00000280: 4e10 103e 7937 2cbe 5ebb 3a3c 3b31 c63d
00000290: fc27 bbbd 626e dabc 5658 3a3d ac2d 4d3d
000002a0: c4f2 83bd 25f3 823d 030f 153d 9e5e 5fbe
000002b0: 848b 46bd 262a 9e3d 13fe abbd fe2f eebd
000002c0: 3b92 8e3d 6c6d b23e 4c20 25be 99a8 0a3e
000002d0: fc6e e83d 1aa4 2a3e f82a 4a3e 16eb a73d
000002e0: ec5b 4ebd a149 5fbd 4a84 1dbe ac15 023e
000002f0: 84a0 3bbc 22f8 0bbe a6b0 033d c03e 393e
00000300: eace f0bb aef4 af3c 4e66 12be ca36 0fbe
00000310: 2e9c c7bd 964a 443d 24d3 bf3d 702a f9bc
00000320: 6aae b6bd c93e 49bd 76de bbba f0af 113e
00000330: 891d 2a3e 3a86 33bd 965c afbd 5e94 2cbd
00000340: 9a5a bebc 48a2 d1bd 5c28 0b3e d4c9 183d
00000350: 0fe8 96bd a7db 97bd 0a9b dcbd 7665 1f3c
00000360: 5b96 52be 3912 f9bd 882c 08be 87ed 06bd
00000370: e1cb 2b3e 43c7 8e3d acb5 8fbd 2484 603d
00000380: c40f c6bd dc91 f73d 2615 4ebe ece9 c93d
00000390: 8350 233e 330b d73e e99f 3d3e 61a1 5f3b
000003a0: ea42 b13c 80d4 f9bc e820 43bd c479 c33e
000003b0: 899b 1bbe 8452 fb3d 2816 93bc b4c1 903e
000003c0: e330 7cbe 3cc5 fdbb 6ea1 083e dfd8 bb3d
000003d0: 55a3 e4bc 2e78 6bbe e8b7 023d e832 6d3c
000003e0: 46d0 acbd 0308 01be e5ad c1bd 0c77 0f3b
000003f0: 1730 d8bc fd94 a9bd d47f bf3c fe07 cd3e

fc3.bias f4 [10]
0.08987235 -0.025322847 -0.0040013776 -0.08462302 -0.06447837 0.06770045 0.1220462 0.062153336
-0.091696545 -0.058680534
00000000: ff0e b83d dc71 cfbc fd1d 83bb d54e adbd
00000010: 3c0d 84bd 89a6 8a3d 5cf3 f93d 7f94 7e3d
00000020: 66cb bbbd 005b 70bd
