p2/1-AprendizajeFederado/final_model.pt (torch, 440453 bytes, 6 tensors)

fc1.weight f4 [128, 784]
0	0x3cf004cb	0.02929916
1	0x3ab3340e	0.001367213
2	0x3d08cf7d	0.033401
3	0xbc97ee5c	-0.018546276
4	0xbd097c8e	-0.03356605
5	0xbb067931	-0.0020519013
6	0x3c05113a	0.008121783
7	0x3c6a2472	0.014290916
8	0xbc82685e	-0.015918907
9	0xbd202bf7	-0.03910443
10	0x3bd70574	0.0065619294
11	0xbb8fa066	-0.0043831347
12	0xbd045d04	-0.03231527
13	0xbc4871f8	-0.0122342035
14	0x3b8f5f27	0.0043753567
15	0xbc9dd73c	-0.01926767
16	0xbd004427	-0.031314995
17	0x3c946ef7	0.018119318
18	0x3ca1515a	0.019692112
19	0xbc6a2822	-0.014291795
20	0xbca21be6	-0.019788694
21	0xbb2a0b5e	-0.0025946717
22	0xbd0f7286	-0.035021327
23	0x3c796f75	0.015224327
24	0x3c778099	0.015106344
25	0xbc4b0be2	-0.01239297
26	0x3c70bdfc	0.014693733
27	0xbce980fa	-0.028503884
28	0x3b282d9b	0.0025661949
29	0xbcf37f30	-0.029723734
30	0xbbc6063e	-0.0060432246
31	0x3c81e3a6	0.015855622
32	0xbc5fa82b	-0.013650934
33	0xbc48c6f3	-0.012254464
34	0x3ba2a016	0.0049629314
35	0xbc4e3144	-0.012584988
36	0xbc644758	-0.013933025
37	0x3b701c56	0.0036637983
38	0xbd4cd264	-0.05000533
39	0xbbc524f8	-0.00601637
40	0xbcdd4331	-0.027009578
41	0xbbcf55d8	-0.006327372
42	0x3bedcf20	0.0072573572
43	0x3c5448be	0.012956796
44	0x3cfa8eb4	0.030585624
45	0x3c9a7392	0.018853936
46	0xbc8e026e	-0.017335143
47	0x3c50c261	0.012741656
48	0xbcedf3d4	-0.02904693
49	0xbc00dcec	-0.007865172
50	0x3b0e102c	0.002167712
51	0x3b82ed22	0.0039955536
52	0x3cc09e65	0.023513028
53	0x3bf04fe6	0.0073337434
54	0xbc932602	-0.01796246
55	0xbb92b9e6	-0.004477727
56	0xbc5409b7	-0.012941769
57	0x3c24d5c8	0.010060735
58	0xbc687565	-0.014188145
59	0xbc9b821a	-0.018982936
60	0x3ce7dcd6	0.028303545
61	0xbd0b9622	-0.034078725
62	0x3ca8e703	0.020617967
63	0xba554eb2	-0.00081370317
64	0xbcd13166	-0.02553625
65	0xbcda91a1	-0.02668077
66	0xbd1a32f9	-0.037646268
67	0x3c94d3e7	0.01816745
68	0x3d015f64	0.031585112
69	0x3c6d4bb4	0.014483381
70	0xbbf2f592	-0.007414528
71	0xbc182f15	-0.009288569
72	0xbcc1aed2	-0.023642931
73	0xbcf05920	-0.029339373
74	0xbd10afcf	-0.035323914
75	0x3cb9cea8	0.02268155
76	0xbc602ccc	-0.013682555
77	0xbb7b0046	-0.0038299724
78	0x3ce67c97	0.028135581
79	0xbcf006d4	-0.02930013
80	0x3cf040e4	0.029327817
81	0x3d08ea77	0.033426728
82	0xbc10288f	-0.008798732
83	0x3c538db3	0.012912202
84	0x3cfd8e0e	0.030951526
85	0x3c02b24e	0.007977081
86	0x39001dd1	0.00012218139
87	0x3c31c7be	0.010850845
88	0xbc45395f	-0.012037604
89	0xb9edf599	-0.00045387147
90	0x3c9380d3	0.018005764
91	0xbb898ef8	-0.0041979514
92	0xbb68f3c6	-0.003554569
93	0x3cb241eb	0.021759948
94	0xbd451068	-0.04811135
95	0xbcb93ace	-0.022611048
96	0x3ca99382	0.02070022
97	0x3bfcdfe8	0.0077171214
98	0xbd26944e	-0.040668778
99	0xbce890be	-0.028389331
100	0x3c92ac56	0.017904442
101	0x3ccd4732	0.025058363
102	0xbcd82a16	-0.026387256
103	0xbbcf3bcf	-0.0063242684
104	0x3cec4e55	0.028845945
105	0xbcdaab4e	-0.026693013
106	0xbbce53d8	-0.006296616
107	0x3c1df590	0.009641066
108	0x3c692dd7	0.0142321205
109	0x3c602e7e	0.01368296
110	0x3bec0b96	0.0072035296
111	0x3c62ca6a	0.013842205
112	0xbca18696	-0.019717496
113	0x3ba09a35	0.0049011954
114	0xbcffbb03	-0.031217104
115	0x395fbd20	0.00021337392
116	0xbcd3b0e6	-0.025841188
117	0xbd11e361	-0.035617236
118	0xbc8ec810	-0.017429382
119	0xbcac5590	-0.021036893
120	0x3c7ae5ba	0.01531356
121	0xbd03756e	-0.03209441
122	0xbbe54726	-0.006997007
123	0x3c81b4b4	0.015833236
124	0xbd242ea7	-0.040083554
125	0xbd020e0c	-0.031751677
126	0xbc56ae4d	-0.01310308
127	0x3b131a03	0.0022445924
128	0xbb46ec05	-0.003035308
129	0xbd0d5eea	-0.034514345
130	0xbb95e01d	-0.0045738355
131	0xbbd38b8a	-0.0064558433
132	0xbce09ea8	-0.027419403
133	0xbb1da609	-0.0024055263
134	0x3b9f5698	0.0048626177
135	0x3cc394b8	0.023874626
136	0x3cdc18f8	0.026867375
137	0x3d0ba1b9	0.034089778
138	0x3c5cfb70	0.013487682
139	0xbcb9d582	-0.022684816
140	0xbcb4f202	-0.022088055
141	0x3b87e5ee	0.004147283
142	0x3c96f3f8	0.01842688
143	0xbca9974e	-0.02070203
144	0x3c0f2956	0.008737883
145	0x3c6ce519	0.014458918
146	0xbc09c78c	-0.008409392
147	0xbc80a310	-0.015702754
148	0x3cd3347a	0.025781859
149	0x3bb0f545	0.005400332
150	0xbcb118e2	-0.02161831
151	0x3c8956cf	0.016765026
152	0x3b8a6ebc	0.0042246263
153	0x3c9b891e	0.018986281
154	0xbbaca6da	-0.0052689137
155	0x3ced57e9	0.028972583
156	0x3d12e05e	0.035858504
157	0x3c14e93e	0.009088812
158	0xbb538724	-0.0032276595
159	0x3d0d1c41	0.034450773
160	0x3d1fc498	0.039005846
161	0x3ceb8664	0.028750606
162	0x3d192af8	0.037394494
163	0xbc286224	-0.010277305
164	0x3c06a614	0.008218307
165	0xbcc9b760	-0.024623573
166	0x3b1ec747	0.0024227665
167	0xbbc2744c	-0.005934274
168	0x3c26c0aa	0.010177771
169	0xbcb750ef	-0.02237746
170	0xbcd39095	-0.025825778
171	0xbc08b292	-0.008343356
172	0xbc227c6e	-0.009917362
173	0x3ce7ef8e	0.02831247
174	0x3cbfc1cc	0.02340784
175	0x3ca451f2	0.020058606
176	0xbd3655b0	-0.04451531
177	0xbca66f79	-0.020316826
178	0x3b76aa72	0.0037638214
179	0xbcbca62a	-0.023028452
180	0xbb80f4e4	-0.0039354432
181	0x3caa6334	0.020799257
182	0xbcf61b22	-0.030042235
183	0xbadd1edc	-0.0016870159
184	0xbb79d64c	-0.0038122116
185	0x3d0c6e6a	0.034284987
186	0xbb2a97e7	-0.0026030482
187	0x3cd0436e	0.025422778
188	0x3c1011ee	0.008793337
189	0xbc14591e	-0.00905445
190	0x3d058fe0	0.032607913
191	0x3b7aa5a4	0.0038245702
192	0xbcc46795	-0.023975173
193	0x3ca563e6	0.020189237
194	0xbcde80a0	-0.027160943
195	0xbc098dda	-0.008395636
196	0xbbb31e29	-0.005466242
197	0x3ceb01c2	0.028687362
198	0x3bc532b8	0.006018009
199	0x3c8a8bd2	0.016912375
200	0x3b810918	0.0039378516
201	0xbd1393e2	-0.036029704
202	0xba82b121	-0.0009971001
203	0xbbf04322	-0.0073322216
204	0xbd294de1	-0.041334037
205	0xbc768194	-0.015045542
206	0xbd21e358	-0.039523453
207	0xbbb17a90	-0.005416222
208	0xbd22aaf4	-0.039713815
209	0xbc115728	-0.008870877
210	0xbc17638e	-0.009240044
211	0xbc73d6ce	-0.014882756
212	0x3d1eb2e2	0.038744815
213	0xbc8acb9a	-0.016942788
214	0xbcdf5855	-0.0272638
215	0xbb9e9e4d	-0.0048406483
216	0xbc9833d7	-0.018579407
217	0xbcbdb9f5	-0.02315996
218	0x3afa804c	0.0019111722
219	0x3cc18fd3	0.023628151
220	0x3a0f28e2	0.0005461109
221	0xbc8fb608	-0.017542854
222	0xbb7062fd	-0.0036680095
223	0x3cc1afa1	0.023643317
224	0xbc98e267	-0.018662645
225	0x3cd9c1f6	0.026581746
226	0xbc315bde	-0.0108251255
227	0xbb7c5b76	-0.0038506663
228	0x3cb68f44	0.022285111
229	0xbb06daf6	-0.0020577288
230	0xbd05a7e3	-0.032630812
231	0xbd25e31e	-0.0404998
232	0x3ce62be2	0.028097097
233	0xbbb0183d	-0.005373983
234	0xbce3cb6f	-0.027806966
235	0x3ab50e69	0.0013813499
236	0x3cea2da2	0.028586213
237	0x3c703b8d	0.0146626355
238	0xb73ddac0	-1.131621e-05
239	0xbc2b9f3d	-0.010474977
240	0x3ce65758	0.02811782
241	0xbc755af6	-0.0149753
242	0xbc5a27c0	-0.013315141
243	0xbbfe8ec3	-0.0077684834
244	0xbbcdf4c4	-0.006285282
245	0x3ca36320	0.019944727
246	0xbc4eb11e	-0.01261547
247	0x3b08f143	0.0020895756
248	0xbca718c0	-0.020397544
249	0x3d10e1ec	0.035371706
250	0x3a600cbb	0.0008546819
251	0x3c3dde3a	0.0115886275
252	0xbcc6858c	-0.024233602
253	0xbcece6f9	-0.02891873
254	0xbc9a4bb8	-0.018834934
255	0x3d025032	0.03181476

fc1.bias f4 [128]
0	0x3cd6ba5c	0.02621191
1	0xbcb41d2d	-0.021986568
2	0x3b950a0c	0.004548317
3	0x3c8d58a7	0.017254187
4	0x3cab4643	0.020907527
5	0x3c76b1c4	0.015057031
6	0x3bbac704	0.005699994
7	0xbc853f1e	-0.016265448
8	0x3c99ca7e	0.018773314
9	0x3b654608	0.0034984369
10	0xbcc3114d	-0.02381196
11	0x3b31cb39	0.0027129187
12	0x3d095ece	0.03353768
13	0xbbc609ea	-0.0060436623
14	0x3c33440e	0.0109415185
15	0x3cc29a4e	0.023755219
16	0x3c8670d4	0.016411223
17	0x3cd84128	0.026398256
18	0x3cc7717a	0.024346102
19	0xbc15bc0c	-0.009139072
20	0xbb48351a	-0.003054923
21	0xbc81cd18	-0.015844867
22	0xbc20fafa	-0.0098254625
23	0x3d0686a2	0.03284324
24	0x3c3f5efa	0.011680359
25	0x3c777182	0.015102746
26	0x3ce25ade	0.02763122
27	0xbc1149b4	-0.00886767
28	0xbcfaaae6	-0.030599069
29	0x3c276baf	0.010218545
30	0xbcc514c4	-0.024057753
31	0x3cef29a5	0.029194662
32	0xbc18938c	-0.009312522
33	0xbcc51bfc	-0.024061196
34	0xbc8915f7	-0.016734106
35	0x3cb25596	0.021769326
36	0xbcddd92c	-0.027081095
37	0x3bae22b6	0.0053141965
38	0x3d260d32	0.040539928
39	0xbc10b6ac	-0.008832615
40	0x3b8c9b55	0.004290978
41	0x3c6a049c	0.0142833255
42	0xbc8b045a	-0.016969848
43	0xbc81845c	-0.015810184
44	0x3c86e71c	0.016467623
45	0xbd153ce8	-0.036435038
46	0x3cc4e58b	0.024035236
47	0x3be63a25	0.0070259743
48	0x3caaa57f	0.020830868
49	0xbc39700d	-0.011318219
50	0x3d0ce4be	0.034397833
51	0x3b2394c2	0.0024960493
52	0x3c813056	0.015770119
53	0xbbdee246	-0.0068018762
54	0xbc3781a0	-0.011200339
55	0x3cde37ee	0.027126279
56	0xbc43be4f	-0.011947229
57	0x3cf598f7	0.029980166
58	0x3d002e96	0.031294428
59	0x3cbaf1a2	0.022820298
60	0x3c0b6e7d	0.008510229
61	0x3ce21636	0.027598482
62	0xbca02ac2	-0.019551639
63	0xbc8d07a9	-0.017215567
64	0x3c20b97a	0.009809846
65	0x3c0b9dc8	0.008521505
66	0x3acddbe6	0.0015705794
67	0x3ca1b290	0.019738466
68	0x3c6e1b64	0.014532898
69	0x3bee94f0	0.0072809383
70	0xb88390b0	-6.273517e-05
71	0xbc99ad14	-0.018759288
72	0xbcc122b5	-0.02357612
73	0x3ce7500a	0.028236408
74	0x3cfdaba1	0.030965628
75	0x3c3d4721	0.011552603
76	0xbd2e4ff4	-0.042556718
77	0xbcd8b834	-0.026455022
78	0x3cbdcbb7	0.023168428
79	0x3c352bde	0.011057822
80	0x3d0b003c	0.03393577
81	0x3b86a88f	0.004109449
82	0x3cdf55b8	0.027262554
83	0x3c6c2dbe	0.014415203
84	0x3c7217c5	0.014776175
85	0xbb40445b	-0.0029337618
86	0xbba85ea0	-0.0051382333
87	0xbd07e122	-0.033173688
88	0xbc80ac23	-0.015707081
89	0xbc1455ab	-0.009053628
90	0xbccfbca2	-0.025358502
91	0x3ae3d7de	0.0017383059
92	0x3c193022	0.009349855
93	0xbc155627	-0.009114779
94	0x3d277f70	0.04089302
95	0x3cd05465	0.025430867
96	0xbc4f0652	-0.012635784
97	0xbb2a2216	-0.0025960258
98	0xbc871d81	-0.01649356
99	0x3c3adbfa	0.011404986
100	0x3c7cd17e	0.015430806
101	0xbcd47b20	-0.025937617
102	0xbcc9270a	-0.024554748
103	0x3c7111e5	0.014713739
104	0x3c92fec5	0.01794375
105	0xbd1693c2	-0.036762007
106	0x3ccc4580	0.024935484
107	0x3c2a5623	0.010396513
108	0x3cbf69c9	0.023365872
109	0x3cb79d65	0.022413919
110	0x3cdd6e9f	0.027030287
111	0x3cde072a	0.027103025
112	0xbcbd03d8	-0.023073122
113	0x3c18f704	0.009336237
114	0x3ce491d0	0.02790156
115	0xbcc60156	-0.024170559
116	0xbc22b7fc	-0.009931561
117	0x3d0bc3ce	0.03412228
118	0x3c916c2c	0.017751776
119	0xbb871966	-0.004122901
120	0xbad5eac8	-0.0016320581
121	0xbb5ab7e1	-0.003337376
122	0x3c70814e	0.014679266
123	0xbc607d8c	-0.013701808
124	0x3b8a53bb	0.004221407
125	0x3a09ecc8	0.00052614184
126	0xbcb55cec	-0.022139035
127	0xbce9bd3a	-0.028532613

fc2.weight f4 [64, 128]
0	0xbd212e44	-0.039350763
1	0xbc52a51e	-0.01285675
2	0x3d9065b8	0.07050651
3	0xbd959f06	-0.07305722
4	0xbddd0e2c	-0.10793719
5	0xbc720842	-0.014772477
6	0x3bf316f9	0.00741851
7	0x3e0585c6	0.13039312
8	0x3cad1417	0.021127744
9	0xbdc91dd8	-0.09820145
10	0xbd89f36c	-0.06735882
11	0x3c26eaba	0.010187799
12	0x3d4d596d	0.05013411
13	0x3cd24784	0.025668867
14	0x3e0cf5d8	0.13765657
15	0xbdc1bd02	-0.094598785
16	0xbdae8dd6	-0.08523147
17	0x3d926cfc	0.07149693
18	0xbd336487	-0.043797042
19	0xbcd27098	-0.025688455
20	0xbdb3becb	-0.08776625
21	0xbd23fe90	-0.04003769
22	0xbdeddd4a	-0.11614473
23	0xbdc7ba2d	-0.09752307
24	0xbd167dbe	-0.03674101
25	0x3c54e8ff	0.012995004
26	0xbd8d0b4a	-0.06886919
27	0x3e1f727a	0.15571013
28	0xbd884a32	-0.06654777
29	0xbc110ead	-0.008853597
30	0x3de5de3b	0.11224028
31	0xbca40c0e	-0.02002528
32	0xbd84a8d2	-0.064775124
33	0xbe0b6a82	-0.13614848
34	0xbcfb0147	-0.030640258
35	0xbdc90bf2	-0.098167315
36	0xbd792e34	-0.06083508
37	0x3d884efc	0.0665569
38	0x3dbffefc	0.09374806
39	0xbd99e230	-0.07513845
40	0x3bf27a8e	0.0073998636
41	0xbd610f9c	-0.054946527
42	0x3c8803a0	0.016603291
43	0x3db06c0c	0.08614358
44	0x3e0337f5	0.12814315
45	0x3d4c3ff4	0.049865678
46	0xbd1ce48c	-0.038303897
47	0x3d75b847	0.059990194
48	0xbd5c3418	-0.053760618
49	0x3e005bc0	0.12535
50	0x3d484d9c	0.04890214
51	0xbc52d0a6	-0.0128671285
52	0xbd92f229	-0.07175095
53	0x3daaaf1c	0.08334181
54	0x3dca6252	0.09882034
55	0xbd088e7a	-0.033339
56	0x3d846987	0.0646544
57	0xbc8f363d	-0.017481918
58	0xbde2137e	-0.11038874
59	0x3d9c1553	0.07621255
60	0x3da487b8	0.08033699
61	0xbdc9ab6e	-0.09847151
62	0x3c1a9824	0.009435687
63	0x3cc5043c	0.02404987
64	0xbafecbfa	-0.0019439452
65	0xbd55dc8a	-0.052212276
66	0xbdf94beb	-0.12172683
67	0x3d819781	0.06327725
68	0xb9f1aa6f	-0.00046094085
69	0xbd6c2ad4	-0.05765803
70	0xbdf07ed6	-0.11742942
71	0xbc9ee3b8	-0.019395694
72	0xbdd983ea	-0.10620864
73	0x3d6606e7	0.056158926
74	0xbdb781c0	-0.08960295
75	0x3ca60e43	0.020270472
76	0x3d2a6cf4	0.041607812
77	0x3dc3831c	0.095464915
78	0x3d35abc0	0.044353247
79	0xbd901910	-0.0703603
80	0xbb53c689	-0.003231438
81	0x3c8996a1	0.016795458
82	0xbe16e32b	-0.14735095
83	0x3e1dd6d4	0.15413982
84	0x3c7289e1	0.014803381
85	0xbd908723	-0.07057025
86	0xbcb13c74	-0.021635272
87	0xbd9e5f1c	-0.077329844
88	0xbde69ec4	-0.11260751
89	0x3daaec4e	0.08345853
90	0xbc9fafd2	-0.019493017
91	0xb7c885e0	-2.3904198e-05
92	0x3d828238	0.063724935
93	0xbd4f4dde	-0.05061137
94	0x3cdc81e6	0.02691741
95	0xbd2b877e	-0.041877262
96	0xbcc6630c	-0.024217151
97	0xbd2416e4	-0.040060893
98	0x3ad2b9ea	0.0016077135
99	0x3d349b3c	0.044093356
100	0xbd6b0ebe	-0.057387106
101	0x3d03faff	0.03222179
102	0xbdb0a0aa	-0.08624394
103	0xbd856bae	-0.06514679
104	0xbdd5ca8b	-0.10439023
105	0x3d904e53	0.07046189
106	0x3d71201f	0.058868524
107	0x3cb309f2	0.021855328
108	0xbdd68890	-0.10475266
109	0xbde3b5c5	-0.11118654
110	0xbd38f344	-0.04515387
111	0xbd79443b	-0.060856085
112	0x3d15d69e	0.036581628
113	0xbdd65cfc	-0.10466954
114	0x3dccfcbe	0.10009144
115	0xbb0a2c92	-0.0021083695
116	0xbcdcc983	-0.026951557
117	0xbde3cf95	-0.111235775
118	0x3d8ac9e2	0.06776787
119	0x3dda339e	0.106543764
120	0xbd5d859f	-0.05408251
121	0xbde535e6	-0.11191921
122	0xbc988c86	-0.018621694
123	0xbb4f1246	-0.0031596585
124	0xbb89c1b6	-0.0042040003
125	0xbd1b54b8	-0.03792259
126	0x3ac01720	0.0014655329
127	0xbd0c1231	-0.034197036
128	0x3d55533c	0.05208133
129	0x3d88095c	0.0664241
130	0xbd9eae2a	-0.07748063
131	0xbcd4e4fb	-0.025988093
132	0x3d52a519	0.05142698
133	0x3d81dad3	0.063405655
134	0x3dbce6bd	0.09223697
135	0xbd63f75a	-0.055655815
136	0xbda48d20	-0.0803473
137	0xbd4e1c58	-0.05032
138	0xbcf42323	-0.02980191
139	0x3d8322da	0.06403132
140	0x3d81a138	0.06329578
141	0x3d0a6844	0.03379084
142	0x3c7e4c16	0.01552107
143	0xbd447e71	-0.047972146
144	0xbd3956a6	-0.04524865
145	0xbc8f1190	-0.01746443
146	0x3db24598	0.0870468
147	0x3d7ba259	0.061434124
148	0x3d8cb3bd	0.0687022
149	0xbd56f6e8	-0.052481562
150	0x3b1b6150	0.0023709126
151	0x3a6fe797	0.0009151636
152	0xbc913418	-0.017725036
153	0xbc7bdf6a	-0.01537309
154	0x3d3e602c	0.046478435
155	0xbd629590	-0.055318415
156	0xbd0f3259	-0.034960125
157	0x3cec5ebf	0.028853772
158	0x3d6047b7	0.054755893
159	0xbc94555c	-0.018107109
160	0xbd5346e8	-0.051581293
161	0x3dbb8484	0.09156135
162	0x3bb509b6	0.0055248393
163	0x3a7bdf5d	0.0009608174
164	0xbd0f383d	-0.034965742
165	0xbd157e3e	-0.036497347
166	0xbdb1842e	-0.086677894
167	0xbced3889	-0.028957622
168	0xbd30ad04	-0.04313375
169	0xbd8d681a	-0.069046214
170	0xbd0d9abe	-0.0345714
171	0x3dc41fb6	0.09576361
172	0x3da59282	0.08084585
173	0xbcae86ca	-0.021304507
174	0x3db61e60	0.08892512
175	0x3d3a2fba	0.04545567
176	0xbce00466	-0.027345847
177	0x3daf15db	0.085490905
178	0x3c420ccc	0.011843871
179	0x3da9c3b1	0.08289278
180	0xbd73dc27	-0.059536126
181	0xbd8e33c8	-0.0694347
182	0x3d7ba1de	0.061433665
183	0x3d84be38	0.06481594
184	0x3cad58c2	0.021160487
185	0xbc877092	-0.01653317
186	0x3c578ae6	0.013155675
187	0xbdbd3c24	-0.092399865
188	0x3db10168	0.08642846
189	0xbbbc5fca	-0.0057487236
190	0x3ce631c2	0.028099898
191	0x3c46f0b6	0.012142351
192	0x3d4540aa	0.04815737
193	0x3d43f34e	0.047839455
194	0x3d306bca	0.043071546
195	0xbc80f3e2	-0.015741292
196	0xbd4813e7	-0.048847105
197	0xbd7061ea	-0.058687128
198	0xbdb92438	-0.09040111
199	0xbd6882ca	-0.056765355
200	0xbd755da7	-0.059903767
201	0x3cce1736	0.025157552
202	0x3d6f1b12	0.058375426
203	0x3c16406c	0.009170633
204	0x3d70804c	0.058716103
205	0xbd9596bc	-0.07304141
206	0x3c091ecc	0.008369159
207	0x3d5d50b3	0.05403204
208	0x3d63ee2f	0.05564707
209	0xbdab609c	-0.08368036
210	0xbdaae632	-0.083446875
211	0xbd3b338a	-0.04570345
212	0xbc93191b	-0.017956307
213	0xbaeb8b41	-0.0017970578
214	0xbd823cdb	-0.063592635
215	0xbdc72752	-0.09724297
216	0xbd0a8a17	-0.0338231
217	0x3d92d36c	0.07169232
218	0x3d1e4dc9	0.0386484
219	0xbdadbb37	-0.08482974
220	0xbd6d38f0	-0.057915628
221	0xbd524ae1	-0.05134094
222	0xbc73ed56	-0.014888128
223	0x3c304282	0.010758044
224	0x3d87d3db	0.06632205
225	0x3d6acb09	0.057322536
226	0xbce4815a	-0.02789371
227	0xbb9a3d86	-0.004707041
228	0x3d864f8e	0.065581426
229	0xbd12e0cf	-0.035858925
230	0x3d8a4a53	0.067524575
231	0x3c1cfe46	0.009582108
232	0xbd3509ac	-0.044198677
233	0xbd8788bb	-0.06617876
234	0xbd27c684	-0.040960804
235	0xbcddae88	-0.027060762
236	0x3da31168	0.07962304
237	0xbc947447	-0.018121852
238	0xbb9f4b75	-0.00486129
239	0xbd6dc4f8	-0.058049172
240	0x3d058de8	0.032606035
241	0xbda89381	-0.08231259
242	0xbcf97a14	-0.03045372
243	0x3d915aeb	0.07097419
244	0xbd16c68d	-0.036810447
245	0xbd79f388	-0.061023265
246	0x3d852475	0.06501094
247	0xbb934840	-0.004494697
248	0x3d6492c1	0.055804018
249	0x3d731ee6	0.05935564
250	0xbcae1d6e	-0.021254268
251	0xbd22e516	-0.039769255
252	0xbcc2ed02	-0.023794655
253	0xbda99b89	-0.08281619
254	0xbd736a96	-0.05942782
255	0xbcd97c2c	-0.026548468

fc2.bias f4 [64]
0	0x3d9bfeaa	0.07616933
1	0xbca3219d	-0.019913489
2	0x3c8149a0	0.015782177
3	0x3dcc3578	0.09971136
4	0x3e051343	0.12995629
5	0x3cfbd000	0.03073883
6	0xbbc0bb05	-0.0058816695
7	0xbd68ef5e	-0.056868903
8	0xbd63442a	-0.05548493
9	0x3aec54fc	0.0018030698
10	0x3d5c4792	0.053779192
11	0x3d0520dd	0.032502044
12	0xbd9e8d46	-0.077417895
13	0x3d1dd291	0.03853089
14	0xbd6511a4	-0.055925027
15	0xbd8497e2	-0.06474282
16	0xbd89b5fa	-0.067241624
17	0xbbe06a31	-0.0068485965
18	0xbd3e7ec6	-0.04650762
19	0x3dbcccc4	0.092187434
20	0x3d1cb75c	0.038260803
21	0x3db36148	0.08758789
22	0x37c5f700	2.3599248e-05
23	0xbc0bb7ad	-0.008527678
24	0x3d1d3559	0.038380954
25	0x3d25d957	0.040490475
26	0x3d22f224	0.039781705
27	0xbd13c62c	-0.036077663
28	0x3db146ef	0.08656108
29	0x3cadc060	0.021209896
30	0x3d0906e7	0.03345385
31	0xbd8997c7	-0.06718402
32	0x3dbf22a0	0.09332776
33	0x3c2855fa	0.010274405
34	0xbdb8832d	-0.09009395
35	0x3d7e4b40	0.062083483
36	0xbd72e5ce	-0.05930119
37	0xbd3be5dd	-0.04587351
38	0x3dceabd4	0.10091367
39	0xbd95c0b0	-0.07312143
40	0xbc3ddecf	-0.011588766
41	0x3cd9bf08	0.026580349
42	0x3cc19196	0.023628991
43	0xbd5feae2	-0.05466736
44	0x3c8a471b	0.016879609
45	0xbd2ed026	-0.042678975
46	0x3bfa56fe	0.007639765
47	0x3d96efdb	0.073699676
48	0x3d9a4e50	0.07534468
49	0xbd36c280	-0.044619083
50	0x3d21a552	0.039464302
51	0xbd29a2a0	-0.041414857
52	0xbcf9c740	-0.030490518
53	0x3d1ed59c	0.038777933
54	0x3c2c6672	0.010522472
55	0xbbd6283d	-0.0065355585
56	0x3d5bd788	0.053672343
57	0x3be4c9b6	0.0069820536
58	0xbc7a1f6e	-0.0152662825
59	0x3d1ab525	0.03777041
60	0xbd308ab7	-0.04310104
61	0xbd57f9c2	-0.052728422
62	0xbd49375d	-0.049125064
63	0x3cf70703	0.03015471

fc3.weight f4 [10, 64]
0	0x3de43572	0.111430064
1	0xbcbee7b2	-0.02330384
2	0x3ce41579	0.02784227
3	0x3cd35a0e	0.025799777
4	0x3ea3684c	0.3191551
5	0xbe08200a	-0.13293472
6	0x3d252c0a	0.040325202
7	0xbdaffbe0	-0.08592963
8	0x3d672c04	0.05643846
9	0xbdf5e843	-0.12007191
10	0x3cd3e7e0	0.025867403
11	0x3eddee18	0.43345714
12	0xbd324749	-0.043525014
13	0x3beb77ee	0.0071859276
14	0xbd325960	-0.043542266
15	0xbe477d16	-0.1948131
16	0xbdd8ad0e	-0.105798826
17	0xbd709806	-0.05873873
18	0xbdd41ec6	-0.10357432
19	0x3dc20556	0.09473674
20	0x3d9f29b4	0.07771626
21	0xbce5bd26	-0.028044295
22	0x3e64b9d0	0.22336507
23	0xbe576073	-0.21032886
24	0xbd872c36	-0.066002294
25	0xbce6611b	-0.028122475
26	0x3ea5c866	0.32379454
27	0xbe3fb3d2	-0.1872094
28	0x3e8de1a1	0.27711204
29	0x3d8eb493	0.069680355
30	0xbd8c0925	-0.06837682
31	0x3dd34016	0.10314958
32	0x3d2a2a8f	0.041544493
33	0x3cba9ef4	0.022780873
34	0x3e224c3f	0.15849398
35	0x3dd08c22	0.10182978
36	0xbde69554	-0.11258951
37	0x3ca09124	0.019600458
38	0x3eb7d37c	0.35903537
39	0x3e0f2bde	0.13981578
40	0x3e023f20	0.12719393
41	0xbd603360	-0.054736495
42	0x3c6178b7	0.013761691
43	0x3cae150e	0.021250274
44	0xbe076136	-0.13220677
45	0xbe319e44	-0.1734553
46	0x3d9adf9e	0.07562183
47	0xbe0a5ad0	-0.13511205
48	0x3d7d1ee6	0.061797045
49	0x3e6308d0	0.2217133
50	0xbd2ecc54	-0.04267533
51	0x3d9d4bd8	0.07680482
52	0x3e715550	0.235677
53	0x3e31acc4	0.17351061
54	0xbce52284	-0.02797056
55	0xbe501c66	-0.20323333
56	0xbda2c9a6	-0.07948618
57	0xbdb321c5	-0.087466754
58	0xbd8f2266	-0.06988983
59	0x3e356a50	0.17716336
60	0x3de708c6	0.1128097
61	0xbe4cb634	-0.1999138
62	0x3d81bfee	0.06335436
63	0xbd7d2131	-0.061799232
64	0xbe219768	-0.15780413
65	0xbd5ba36a	-0.05362264
66	0x3e3e6af8	0.18595493
67	0xbdf3a776	-0.11897175
68	0xbe342b88	-0.17594731
69	0x3d907500	0.07053566
70	0x3c4f095e	0.012636511
71	0xbd92381a	-0.07139607
72	0xbd9d115b	-0.07669326
73	0xbe3fe491	-0.18739535
74	0x3e3b3268	0.18280947
75	0xbdcc3b95	-0.09972302
76	0x3cfc046e	0.030763831
77	0x3dbf65ca	0.093455866
78	0xbdce6497	-0.1007778
79	0xbd5f4a36	-0.054514132
80	0x3d6f2fb5	0.058395106
81	0x3da78049	0.08178765
82	0x3d8698da	0.06572123
83	0xbe21e5b4	-0.15810281
84	0xbc06592a	-0.008199969
85	0x3de959b8	0.113940656
86	0xbe83f15c	-0.2577008
87	0xbe2b2d61	-0.1671653
88	0x3d71c824	0.05902876
89	0x3e78b8e2	0.24289277
90	0xbd09bae6	-0.033625506
91	0xbe6f389a	-0.23361436
92	0xbe1f5244	-0.15558726
93	0xbbcf60be	-0.0063286712
94	0xbd247272	-0.040148206
95	0x3e087dd6	0.13329253
96	0xbda3f2b4	-0.08005276
97	0xbe43f003	-0.19134526
98	0x3e7863fc	0.24256891
99	0x3db02dc7	0.08602481
100	0xbdfd3dff	-0.123653404
101	0xbd4def13	-0.050276827
102	0xbe675369	-0.22590412
103	0x3ddfa56d	0.10920224
104	0x3df7fcf4	0.12108794
105	0x3d9caa08	0.076496184
106	0x3eab2b2a	0.3343137
107	0xbd87e622	-0.06635691
108	0x3dfe8388	0.12427431
109	0xbe0998c0	-0.13437176
110	0xbe2ea46a	-0.17054906
111	0xbc93bd8d	-0.01803472
112	0xbdea521e	-0.11441444
113	0x3da244fa	0.079233125
114	0xbd61b1a4	-0.055101052
115	0xbdaa4db0	-0.08315599
116	0x3e041f2a	0.12902513
117	0xbe06168c	-0.13094538
118	0x3d2e05fa	0.04248617
119	0xbe57294e	-0.2101185
120	0xbde49229	-0.1116069
121	0xbe2c9020	-0.16851854
122	0xbcbf8765	-0.02337999
123	0x3e12d7da	0.14340153
124	0x3db50ae6	0.08839969
125	0xbe460374	-0.19337255
126	0x3d9f15c8	0.07767826
127	0xbd20004b	-0.03906278
128	0xbaaffc6c	-0.0013426668
129	0x3db1685a	0.086624816
130	0xbda7a987	-0.08186632
131	0x3dadfc4a	0.08495386
132	0x3d0a129a	0.033709146
133	0x3d53d94e	0.05172091
134	0x3deec70f	0.11659061
135	0x3d0b9379	0.034076188
136	0xbd1b4d70	-0.037915647
137	0x3e5de792	0.21670368
138	0x3e2b5557	0.16731773
139	0x3d936898	0.07197684
140	0x3d1882e4	0.037234202
141	0xbde3d552	-0.11124672
142	0x3e377ca8	0.17918646
143	0xbe17d038	-0.14825523
144	0xbdbf0f96	-0.09329145
145	0xbd89bf96	-0.06725995
146	0xbdaae878	-0.08345121
147	0xbe0a8a1c	-0.13529247
148	0xbca8d932	-0.02061138
149	0x3d7b8798	0.06140861
150	0x3c1a6b3b	0.00942498
151	0x3e92dda8	0.28684735
152	0xbe5b1844	-0.21395975
153	0xbe25ec1f	-0.16203354
154	0x3e816abd	0.25276747
155	0x3c3a4068	0.011367895
156	0x3e9c8e9e	0.30577558
157	0x3cbe24cc	0.023210905
158	0xbe044077	-0.12915216
159	0xbcbd1182	-0.023079637
160	0x3ce2c52f	0.027681915
161	0xbda96990	-0.082720876
162	0xbe40128f	-0.1875708
163	0xbe03bca6	-0.12864932
164	0xbdd2c66e	-0.10291754
165	0xbd166cde	-0.036724918
166	0x3e0653b6	0.1311787
167	0xbdd1f67b	-0.102520905
168	0xbe5c58bc	-0.21518224
169	0x3d9fd525	0.07804326
170	0x3d0c7c94	0.034298494
171	0x3dbd4f1a	0.09243603
172	0x3cd3ce26	0.025855135
173	0x3e01de52	0.12682465
174	0xbe1bfcba	-0.15233126
175	0xbe2764ba	-0.16347018
176	0xbd02e093	-0.031952452
177	0xbe34b502	-0.17647174
178	0x3da8b9de	0.08238576
179	0xbd7508aa	-0.059822716
180	0xbdc2b632	-0.09507407
181	0x3c21af41	0.009868444
182	0xbde4e328	-0.11176139
183	0xbc807228	-0.015679434
184	0x3e1eea1e	0.15518996
185	0xbd9ef61e	-0.07761787
186	0x3ce9e0b2	0.028549526
187	0xbe05cbc7	-0.13066016
188	0xbc572a89	-0.0131327
189	0xbcbac683	-0.022799736
190	0xbd6f8e76	-0.05848547
191	0xbdf458c4	-0.11930993
192	0x3c261ad0	0.010138229
193	0xbddc299e	-0.10750125
194	0xbdc1e8e6	-0.0946825
195	0x3e5fddd4	0.21861964
196	0xbdae9c48	-0.08525902
197	0x3dbc29c3	0.09187653
198	0xbdef54e5	-0.11686114
199	0x3d733590	0.059377253
200	0x3d20926f	0.03920215
201	0xbdccd4fa	-0.100015596
202	0xbdcdd8e4	-0.10051134
203	0x3e96bf46	0.29442805
204	0x3dd35f96	0.10320966
205	0x3dc885d6	0.09791152
206	0xbda38d7e	-0.07985972
207	0xbdcce935	-0.10005418
208	0x3de3042e	0.110847816
209	0x3e83c0fa	0.25733167
210	0xbcec47ec	-0.028842889
211	0x3e5c09bf	0.21488093
212	0xba5783e9	-0.0008221255
213	0x3e2da2d8	0.16956651
214	0x3c96f26b	0.01842614
215	0x3e18b210	0.14911675
216	0xbc4fa559	-0.012673699
217	0x3e75b28f	0.23993896
218	0xbc4d897a	-0.012544984
219	0xbd8cded2	-0.06878437
220	0xbe035485	-0.1282521
221	0xbdd79d60	-0.10528064
222	0x3d7cafc2	0.061691053
223	0x3dfc56f0	0.123212695
224	0xbd773575	-0.060353715
225	0xbe03747c	-0.12837404
226	0xbe1e1418	-0.15437353
227	0xbdbda1d3	-0.09259381
228	0xbcacda3c	-0.021100156
229	0xbdd1f638	-0.102520406
230	0x3de8981a	0.11357136
231	0x3d8209ab	0.063495
232	0x3d7c3c10	0.061580718
233	0x3e1a0ee6	0.15044746
234	0x3d49ecd2	0.049298115
235	0x3dc37a3e	0.095448
236	0x3e8d987a	0.27655393
237	0xbd955168	-0.07290918
238	0xbe10477e	-0.14089772
239	0xbc911f36	-0.017715078
240	0xbdf22687	-0.11823755
241	0xbd972fb8	-0.073821485
242	0xbdc88098	-0.09790152
243	0xbcec23da	-0.02882569
244	0x3e94ba63	0.29048452
245	0x3e946b4d	0.28988114
246	0x3e2cc34e	0.16871378
247	0xbd5655fc	-0.052328095
248	0x3e24fad8	0.16111314
249	0xbdd55af4	-0.104177386
250	0x3d91d2d6	0.07120292
251	0x3d65017f	0.05590963
252	0xbdd1e8ee	-0.10249506
253	0xbdc483de	-0.09595464
254	0x3da97e21	0.0827601
255	0xbdaa3364	-0.08310583

fc3.bias f4 [10]
0	0xbc4703b8	-0.012146883
1	0xbdf7d68f	-0.12101471
2	0x3e516e4c	0.20452231
3	0xbd2dfd04	-0.042477623
4	0xbd8079f4	-0.06273261
5	0xbe28fdca	-0.16503063
6	0x3e6d5ab4	0.23179132
7	0xbde90d4e	-0.11379491
8	0x3e2937ef	0.16525243
9	0xbe0a71b8	-0.13519943
