p2/1-AprendizajeFederado/final_model.pt (torch, 440453 bytes, 6 tensors)

fc1.weight f4 [128, 784]
00000000: 869a dd3a ac7c 963c 6b0e 923a fa9e c1bb
00000010: e5ca d7bc ef4b 46bc 6837 c4bc 385a a3bc
00000020: 66cb debc 9d77 08bc 4c03 e53c 6a94 363d
00000030: bcf4 a03a 311b 25bc 59e0 033c e2ed e93c
00000040: 6a63 1f3c e815 1e3d 61ef 78bc fe87 f3bc
00000050: 20b7 1bbc cbdb 96bc a81d 063c 6158 afba
00000060: 2bbf fd3c 29ea 89bc 8cd1 a03c a004 c73b
00000070: 365a 60bb 5bd0 26bc e099 f23c ff75 c93b
00000080: 1c32 813c a0c1 74bb a087 ae3c 1845 8d3c
00000090: f3b7 bb3c fd10 a63c 04cd dc3c 1c5d 913a
000000a0: 2e19 57bc a2dc 1ebc 5411 16bd d97b adbc
000000b0: 483a 053c 4106 c9bc b81b 273d cd8d 0bbd
000000c0: 2904 08bd 70fc 84bc 1893 cdbc 12a2 9c3b
000000d0: 5722 003d a912 923c bb6b d1bc 8223 cdba
000000e0: 5288 0bbd 5eeb d8bc 9260 e63b 5bdd d7bb
000000f0: be0c 97bb d736 c43c 31e2 993c 3375 c13a
00000100: a6c2 b5bc bcf7 0c3c c998 a9bc fa3c 063d
00000110: 4268 42bc 485a b1bc 1e75 d5bc 7c18 be3b
00000120: 33a6 0e3d cbbe be3b c219 cebc 68b6 1ebd
00000130: 46c3 28bd 40d8 00bd e11a 393c fa22 30bc
00000140: 8529 8cbc 078b 3c3c 4df7 313c e0df 8e3c
00000150: 0b8f 75bc 5af3 bfbc 1e63 dcbb f549 ef3c
00000160: b46a 1abb a8c4 d33c 6896 a7bc 4f40 12bd
00000170: 99e4 dfbc dac1 1e3c 956f 103d d8d3 b6ba
00000180: e893 51ba ba95 133d 003d 85bc daa0 abbb
00000190: b5d9 263d fcb5 c93c 2b1f 483c 2458 293c
000001a0: eef2 6abc 2b9a 1dbd 5501 60ba e104 a6bc
000001b0: 08b2 77bc 3807 463c 06a3 ffbc f5eb d53c
000001c0: 9e12 c2bc c4d8 9fba 141d 0a3d 7305 29bc
000001d0: 9a45 e9bc 1d23 43bc f338 72bc 5847 d2bc
000001e0: 8e5a 3abd e5f2 debc adc3 b2bb f592 15bc
000001f0: a9c8 b83c 567c f43c 94b0 a43c 6fc8 6a3c
00000200: bfeb 443c e98e 4dbc e484 debc a1a5 c7bb
00000210: f295 46bd e4ff 6fbc a795 28bd 64d3 893b
00000220: a728 88bc 21a1 c13c f42f c83c 3baf 853c
00000230: 7350 48bc 4765 00bd a3ac e1bc 4e5c 0b3d
00000240: da41 3fbc 853a e63c bc0f 2fb9 4eae a3bc
00000250: eab3 0dbc ad42 f8bb 9a02 2b3b e4d3 1b3d
00000260: 235b d63c 130e 9c3c 77fd b93c 0c2b d23c
00000270: 5f9b 083c 449c 393c 1a6e 73bc 7cdf e2bb
00000280: 234c 1ebc c4d0 0bbd caeb 2d3b 3d89 f83c
00000290: 1579 43bc 326d 86bc f810 693c f4cf 143c
000002a0: a19f a43b fe4f 023d 3bc8 ef3c ca4e 58bb
000002b0: 0330 013d 8cf5 c43c 5132 ed3c 8066 0dbd
000002c0: 78f3 f63c 9c5c afbc bccd 46bc af09 983c
000002d0: bbc8 04bc 5648 c33c 55bb 14bc 4fe7 293d
000002e0: 6818 3c3b eb8c babb f165 9f3c 4807 943b
000002f0: 1b83 20bd 7cb6 0d3c 187d f33b e050 633a
00000300: 7a65 0c3c 7ccc ce3c caa7 be3c 0a8c adbc
00000310: 34de 003d 3598 04bd 62f7 14b9 003f adbc
00000320: d194 d13c 5c0c 9abb 9992 dfbb b894 053b
00000330: 7792 833c 126c 953c 3fc2 e93c 77e9 d1bc
00000340: af90 8f3c 1e30 16bc 78f2 5b3b d9e3 b33c
00000350: 826d 30bb cb30 2c3d 66e5 98bc d0a1 89bc
00000360: fc03 163c c5f8 923a 8305 bfbc 669d d8bc
00000370: e4b7 5e3b 5acd 57bc 52e4 003d 3151 f43c
00000380: ded8 97bc e242 e1bb aade cdbc b46b 4d3c
00000390: 5257 c5bb 6932 be3c ff1e f8bc b9bb 99bc
000003a0: bc9e a23b 227c f13c 889e c039 7cf9 323d
000003b0: 6a66 363d d94d 323c 84bc 18bd 50b5 863c
000003c0: 0859 ae3c 16c7 413c dbb0 e13c 3512 44bc
000003d0: d816 fabc 8518 afbc 8838 cdbc b532 36bc
000003e0: 4bfd 06bd 3134 9abc c316 b6bc 5014 433c
000003f0: e9e1 0e3d f539 ccbc 6609 bc3b abd1 91bc
0.0016907013 0.018369995 0.0011143213 -0.005908844 -0.026341865 -0.012103065 -0.023952201 -0.01994048
-0.027196597 -0.008329299 0.027955674 0.044575132 0.0012279968 -0.010077284 0.008049094 0.028555814
0.009728292 0.03859511 -0.015193791 -0.029727932 -0.00950411 -0.018415352 0.008185782 -0.0013377779
0.030974945 -0.01683529 0.01963117 0.0060735494 -0.0034233457 -0.010181512 0.029614389 0.0061480994
0.015770964 -0.0037346855 0.021304905 0.01724486 0.022914862 0.020271773 0.026953228 0.0011090371
-0.013128562 -0.009696158 -0.03663762 -0.02117722 0.008131571 -0.024539115 0.04079792 -0.03407078
-0.033207092 -0.016233653 -0.025094554 0.0047800625 0.03128275 0.017831163 -0.025564065 -0.0015650841
-0.034065552 -0.02647942 0.007030555 -0.006587667 -0.0046096733 0.02395193 0.018784614 0.001475966
-0.022187542 0.008603986 -0.020702736 0.032772996 -0.011865677 -0.021649495 -0.026056822 0.0058012586
0.03482647 0.005821084 -0.025158767 -0.038748175 -0.041201852 -0.031456232 0.011297912 -0.010750527
-0.017109642 0.011507756 0.010862184 0.017440736 -0.014987717 -0.023431469 -0.006725683 0.02921007
-0.0023562135 0.025850609 -0.020457461 -0.03570586 -0.027330684 0.0096897725 0.035262663 -0.0013948632
-0.0007994757 0.036031462 -0.016264439 -0.005237681 0.040734965 0.02462291 0.012214462 0.010335956
-0.0143401455 -0.038477104 -0.00085451204 -0.020265998 -0.01511813 0.012086682 -0.031205665 0.02611349
-0.023690518 -0.0012195338 0.033719137 -0.010316241 -0.028475571 -0.011910227 -0.014784086 -0.025668785
-0.045496516 -0.02721543 -0.0054554553 -0.009129276 0.02255662 0.029844444 0.02010373 0.014330014
0.012019097 -0.0125462795 -0.027162977 -0.0060927426 -0.048482843 -0.014648411 -0.041158345 0.004206108
-0.016620947 0.023636403 0.024436928 0.016318908 -0.012226212 -0.031346586 -0.02754814 0.034023575
-0.011673415 0.028104076 -0.00016695162 -0.019980576 -0.008648852 -0.0075763077 0.002609408 0.03804387
0.026166504 0.01904968 0.02270387 0.025655292 0.008337825 0.011328761 -0.014857793 -0.006923614
-0.009661707 -0.03413464 0.0026538246 0.030338878 -0.011930724 -0.01640949 0.014225237 0.009082783
0.005023912 0.031814568 0.029270282 -0.0033005946 0.03153993 0.024042867 0.028954657 -0.03452158
0.030145392 -0.021406464 -0.012134012 0.018559305 -0.0081044985 0.023838203 -0.009077867 0.04148036
0.002870107 -0.0056930683 0.01945779 0.0045174696 -0.039187532 0.008649465 0.007430684 0.0008671414
0.008569116 0.02524399 0.023273367 -0.02118494 0.03146191 -0.03237172 -0.00014206537 -0.021148205
0.025583657 -0.0047011804 -0.0068228957 0.0020382833 0.01606105 0.018240009 0.028535007 -0.02562402
0.017525045 -0.0091667455 0.003356127 0.021959232 -0.002692074 0.04203872 -0.018664073 -0.016800791
0.009156223 0.0011213055 -0.023318058 -0.02644224 0.003398412 -0.013171518 0.031467743 0.029823871
-0.018536028 -0.006874428 -0.025130589 0.012537885 -0.0060223723 0.023217397 -0.030288218 -0.018766271
0.0049627703 0.029478136 0.0003673921 0.043694958 0.044531263 0.010882818 -0.037289158 0.016443878
0.021282688 0.011827251 0.027550152 -0.0119672315 -0.03052847 -0.021373997 -0.02505137 -0.011120488
-0.032956403 -0.018823715 -0.02222765 0.011906698 0.034883413 -0.02492998 0.005738425 -0.017800173

fc1.bias f4 [128]
00000000: f672 983c 597c 373c e218 34bc 5f04 f93c
00000010: d61a 16bc 6ece c3bc 2d01 b83b bd0a 88bb
00000020: 05be 7dbc 9bd0 ecbc 6a25 1fbd 22f5 c2ba
00000030: 0c8b 88bc 3ebd 9e3b 5cdf e9bc ce98 503d
00000040: 5a93 f83b 2c96 45bc da8b acbc 322c c2bc
00000050: 1e30 c7bc 50c0 dc3c 3b67 a13c aba9 0fbc
00000060: 8dc4 b23b cbe9 583c fc39 08bd a37c 1bbd
00000070: 59b6 173c 4c05 ae3a c03b 0cbc 044b 1ebd
00000080: e395 d6bc 9af0 ffbc 64df 1e3c 4937 4d3c
00000090: 39d2 b1bc a76d cfbc caab e9bb 2080 9a3c
000000a0: 3d33 fabc 3341 d7bb b6a0 20bc 99ed 013d
000000b0: f1b5 b93c c0c9 763c c415 8fbb 730d fdbc
000000c0: bf11 ca3b 37ec b33c efaa f8bc 9ce9 11bc
000000d0: a7f5 e83c 79b5 9cbc d27f b2bc 856d 823c
000000e0: 3568 c63b 90ae debc f875 00bd aeb5 ce3c
000000f0: fdc9 2fbc 3d35 ae3c b965 89bb 2b7c f8bc
00000100: 562c bd3c e67f c5bc 5678 c6bc 8c52 a03b
00000110: d687 e7bc 0b54 663c 1070 073c 2120 dbbc
00000120: f2fd bf3c 9b07 db3b f350 16bc e2df 903c
00000130: 9588 b93c b20a eb3b 3efb d23c e92d cbbc
00000140: 1a66 273c 9232 d5bc 49db 72bc c43b 603c
00000150: cd33 113c 2248 153d 8f4d e2bc 3a87 e6bc
00000160: 6e16 1bbc e9d4 a53c a46f a13c 112c 5cb9
00000170: 9538 903c 65dd 153d 5bd8 913c 39c8 de3c
00000180: 452f 25bc 072f 29bc 66b8 91bc e94a 053d
00000190: b2e8 06ba 8289 38bd 1e8c 9e3c d435 3abd
000001a0: 6ba2 8a3c f38a e93c 3971 053d 4012 263c
000001b0: 0610 95bc 75f1 f63b bee3 b2bc 32ab 1a3a
000001c0: 8d24 8bbc 7e7d e6bc f0c7 c9b9 f47c a73c
000001d0: ee81 bb3c b87b 863c 5ed7 dfbc 6327 9bbb
000001e0: f91b 303c b103 b33b a7ad a43c 7c1d f1bc
000001f0: fac5 a23c 5b5e dd3c 72f5 a2bc 327e fd3c
0.018609505 0.01119908 -0.010992261 0.030397592 -0.009161672 -0.023902144 0.0056153745 -0.0041516707
-0.015487199 -0.028908065 -0.03885404 -0.0014874081 -0.016667865 0.004844337 -0.028548889 0.050926976
0.007585925 -0.01205973 -0.02106278 -0.023702715 -0.024314936 0.02694717 0.019702544 -0.008768479
0.0054555596 0.013239334 -0.033258423 -0.03796066 0.009259784 0.0013276725 -0.008559167 -0.03864576
-0.026194518 -0.031242657 0.009696815 0.012525388 -0.021706687 -0.025320841 -0.0071310746 0.018859923
-0.03054201 -0.0065690516 -0.0098039415 0.03172073 0.022669764 0.015062749 -0.0043666083 -0.030890202
0.0061666663 0.021963222 -0.030354945 -0.0089057945 0.028437449 -0.019129502 -0.021789465 0.015921364
0.006054903 -0.027182847 -0.031362504 0.025233116 -0.01072931 0.02126562 -0.0041930345 -0.030332645
0.02309243 -0.024108838 -0.024227303 0.004892653 -0.028263014 0.014058123 0.008266464 -0.026748719
0.02343652 0.0066842563 -0.009174573 0.01768488 0.022648135 0.007172906 0.025754567 -0.024802165
0.010217214 -0.02602509 -0.0148227895 0.013686124 0.008862448 0.036445744 -0.027624873 -0.028140653
-0.009465797 0.020243125 0.019706555 -0.00020997251 0.017605105 0.03658809 0.017803362 0.027195083
-0.010082071 -0.010326154 -0.017788123 0.032542143 -0.00051463686 -0.045053013 0.019353922 -0.04546149
0.01692315 0.028508639 0.03257868 0.010136187 -0.018196117 0.007536108 -0.021837112 0.0005900144
-0.016985202 -0.028136011 -0.00038486673 0.020445324 0.022889104 0.016416416 -0.027324375 -0.00473492
0.010748857 0.0054630865 0.020102335 -0.029433005 0.019869793 0.027022531 -0.019892428 0.030943964

fc2.weight f4 [64, 128]
00000000: 6407 66bd 2b1e c0bc 94fe a2bd c46f 013d
00000010: 8cd9 4f3d 5d57 debc c08d 743d a00b 2bbd
00000020: 8f97 a8bd 4e93 23bd 46e8 503d c7d7 15bc
00000030: 3e54 413c 79fd 9a3c 27ba 1c3d 3aac febc
00000040: da81 d2bd 68ba 383d afc3 a8bd c6b7 423d
00000050: dc92 533d 4129 11bd d527 dbbc a31e a3bd
00000060: 5c3a 7f3d 5034 ee3c d9b4 bd3c 709d c93d
00000070: 32f4 b93d 1709 203c ab06 a9bc bed6 70bd
00000080: c9f0 133d f2e6 883d 6854 dbb8 8ab1 7fbd
00000090: 18f3 22bd 67ba a9bc 1a64 ea3c 6f22 6d3d
000000a0: 2963 0fbd aca9 843d f5bb 093d a1ab 3f3d
000000b0: fccf ae3c 12f3 0bbc 4e51 9c3d 90b7 943d
000000c0: eb27 3f3d bf4c 963d d2be 6f3b f7e0 80bd
000000d0: 9a4f 54bd 6235 903d 0cba 0e3b 3212 5dbd
000000e0: 7c03 bebd fd02 78bd cd2e 793b 7ebc 87bd
000000f0: 1f71 5b3c 4bf2 b5bd 5c3d 983d 12a8 8dbb
00000100: ed63 e93c af9f cabc f824 a63c 5803 6a3d
00000110: 8b77 aa3a 4e29 7bbd c061 a5bd c606 7e3b
00000120: 2245 a7bc 9d93 57bd 76a9 433c 11be c23d
00000130: e927 c23d 1c85 a03d f6a7 58bd 69db 053d
00000140: db62 9eba d226 9a3d 27c7 36bd 4505 fe3c
00000150: 83ca 403d 9da8 433c a27a f3bc c5b0 0dbd
00000160: d3fc 4e3b 2c2c e7bc 9665 31bd 9c51 293d
00000170: 06a6 8d3b df6d aabd 2c3e 0f3d b927 22bd
00000180: 9a70 b5bc a74e f5bc 575a 1c3d 2cff ac3d
00000190: 33c6 09bd 69b0 83bd 62ae 8c3d 9677 b2bd
000001a0: aea7 abbd c3d6 32bd 467b e1bc 94e0 aaba
000001b0: ccad 103d 5fed 05bd c3fc fabc ccd1 29bd
000001c0: 1071 9fbc c7a6 7bbd 44e1 af3c ddd1 4f3d
000001d0: 1880 873c 9d4c 903d 58b1 25bc acae 3cbd
000001e0: dd66 ad3c ef2c 183c b8dd 9cbd 03ce 67bd
000001f0: 382e 733d 248b 9bbd e224 c6bc cc7a 793d
00000200: aaa0 c3bd 4e58 08bd 7206 54bc 89fe a63b
00000210: c486 acbd 32c4 56bd 94bb b1bc 3ef8 d83d
00000220: 8216 0fbc e2de 9a3c 5677 283d 564f 89bd
00000230: fac5 4abd ce13 43bd ccad 68bd b9f8 32bd
00000240: cf29 afbd f31f a1bd 3c8d 79bd 2f06 853d
00000250: ca74 98bb b270 55bd 6aba 6c3d 1db5 bdbb
00000260: 3866 533d dd16 28bd b86d 71bd 1a2a 83bc
00000270: d72c b13d 2c02 c13d e493 9abd df1b 64bd
00000280: 0cc2 b33d 7365 3ebc 428f f33c 7ac0 a1bd
00000290: 2388 8fbd dad1 bfbc c51f a1bd dd93 2b3d
000002a0: 98f0 573c a0f3 813d 921e 863d 0482 12bd
000002b0: 9571 363d f1bf a1bd 68a9 813d 92b1 52bd
000002c0: 022f ba3d d254 9cbc 1656 4fbd f302 81bd
000002d0: 002d 35bd 0e10 343d 792c 1bbc 23db 233a
000002e0: bab4 2dbd fb9f f8bd c237 0cbd 2bd7 29bc
000002f0: 9ad8 8cbb 702b 523d 19f7 5e3d 0d05 503c
00000300: 2bc3 2b3c 24e1 853d a591 c13d f683 66bd
00000310: a01c 5fbd 9e2d 8abd 5427 ed3c 005d a3bd
00000320: 9c4a e4bb 83f7 65bd 8ef5 003a 88ce 083d
00000330: d209 7cbd b863 643c 003c 80bd e046 6f3c
00000340: 2447 ed3c 4403 383d a59e 15bd 7a1a 6cbd
00000350: a9b5 81bd f0ee 16bd 7616 c2bc 6c9e 9bbc
00000360: 38b2 cebc 6abf 563d b8c5 d1bd 0e6d 673d
00000370: 290d 3ebc 46b5 263d d88a e13c 0ce9 453d
00000380: 6833 3f3d 10d9 bfbc 1967 913d 8e9d a33b
00000390: 4457 54bd 50d4 ca3d 077d 143d cf8f fd3a
000003a0: f31d f63b 3dac 773c f933 1f3d a44f e43c
000003b0: 6935 77bd ef0d b7bd 8c8d f3bc be24 96bd
000003c0: 850b 73bd 7380 bfbd 4d7a debb acea cd3d
000003d0: cdde 553d 02e0 c43d fa85 ae3d b3fd c3bd
000003e0: 7931 fe3d 9ef1 bcbd a68a f63c a510 8c3d
000003f0: 3169 6a3c a444 2dbc 3a40 33bb 0b51 96bd
-0.056159392 -0.023451885 -0.07958713 0.03160073 0.05074458 -0.027141267 0.059705496 -0.041759133
-0.082320325 -0.039935403 0.051002763 -0.009145684 0.01179987 0.018919693 0.038263466 -0.031087983
-0.102786735 0.045099646 -0.08240449 0.04753854 0.051653728 -0.035439733 -0.026752392 -0.07964828
0.062311515 0.029077679 0.023157524 0.09844482 0.0907978 0.009767792 -0.020633062 -0.058798544
0.036118302 0.06684674 -0.00010458456 -0.062425174 -0.039782614 -0.020718766 0.028612185 0.057894167
-0.035006676 0.06477675 0.033626515 0.046794537 0.021339409 -0.008541839 0.07632695 0.07261574
0.046668928 0.07338857 0.0036582244 -0.06292909 -0.051833726 0.07041432 0.0021778373 -0.05397243
-0.09278008 -0.060549725 0.003802228 -0.06627749 0.013393669 -0.08884104 0.07433578 -0.004323014
0.028490031 -0.024734346 0.0202813 0.057132095 0.0013005597 -0.061318688 -0.08075285 0.0038761362
-0.020418707 -0.05263101 0.011942258 0.095089085 0.094802685 0.078378886 -0.052894555 0.03267995
-0.0012083905 0.07526936 -0.04462352 0.031008372 0.04706813 0.011942056 -0.029721562 -0.03459241
0.00315838 -0.028219305 -0.04330977 0.041337594 0.00432277 -0.083217375 0.0349714 -0.039588664
-0.02214842 -0.02994473 0.038172092 0.08447108 -0.033636283 -0.06430132 0.068691984 -0.087142155
-0.08381592 -0.043661844 -0.027524602 -0.00130369 0.035321996 -0.032697078 -0.030638104 -0.041459844
-0.019463092 -0.06143835 0.02146972 0.05073725 0.016540572 0.07045863 -0.010113083 -0.046065018
0.021167213 0.009288057 -0.07659477 -0.056592952 0.05937025 -0.07594898 -0.024187509 0.060908124
-0.095521286 -0.03328734 -0.01294099 0.005096261 -0.08424142 -0.0524332 -0.02169589 0.105942234
-0.008733394 0.018905107 0.041129433 -0.06704585 -0.04950521 -0.04762631 -0.05680637 -0.04369423
-0.08552896 -0.07867422 -0.060925707 0.0649532 -0.004652594 -0.052109428 0.057794966 -0.0057894127
0.051611155 -0.04103743 -0.058942527 -0.016011287 0.08651131 0.094242424 -0.07547739 -0.055690642
0.08777246 -0.011620867 0.029731397 -0.0789804 -0.07008388 -0.023415495 -0.07867388 0.04188906
0.013179921 0.06345296 0.065487996 -0.035768524 0.044541914 -0.07897938 0.0633114 -0.051438875
0.09090997 -0.019083414 -0.050619207 -0.06299391 -0.04423237 0.043960623 -0.009471052 0.00062506105
-0.042408682 -0.12139889 -0.034232862 -0.010366241 -0.004298282 0.051310956 0.05443487 0.012696517
0.010483543 0.06537083 0.094516076 -0.05627819 -0.05447066 -0.06746982 0.028949417 -0.07976723
-0.006966902 -0.05614425 0.0004919403 0.03340009 -0.061532803 0.01393979 -0.06261444 0.0146043
0.028964587 0.04492499 -0.03652825 -0.057642438 -0.06333477 -0.036848962 -0.02369235 -0.01899644
-0.025231466 0.05242864 -0.1024279 0.056500487 -0.011599817 0.04070022 0.027532026 0.048317954
0.046679884 -0.023418933 0.070997424 0.004993147 -0.051841035 0.09903777 0.036252048 0.0019345226
0.0075108944 0.015116748 0.038867924 0.027870007 -0.06035367 -0.089382045 -0.02973058 -0.07331227
-0.059337158 -0.093506716 -0.0067894817 0.10054526 0.052214433 0.096130386 0.08521648 -0.09569874
0.1241178 -0.09225772 0.03009541 0.06839112 0.014307306 -0.010575447 -0.0027351514 -0.073396765

fc2.bias f4 [64]
00000000: b02c bfbc 47ad 233c fb82 ac3c 91b9 d73c
00000010: e24c 363c cf01 a33d 34b8 da3c 0131 423a
00000020: 181d ccbc 8beb 66bd 9a2e 9fbd 9616 a1bd
00000030: d376 73bd bd1c 7cbd f9d3 e2bc da5b 04bb
00000040: 2cf5 073e a703 043d b4a6 93bc 62f8 aaba
00000050: ca0c 58bc c238 85bd dc29 07bd 0578 e63d
00000060: efab d33d 9126 373d c0cd 4f3d 8e8f 33bb
00000070: 5bc2 213d b298 12bd 23c5 e03c 5cc9 84bd
00000080: 4474 8c3d e8e2 4dbd 1a97 a43d d975 89bd
00000090: 3c93 1a3d 02e3 983d 23c5 adbc 6bf1 403c
000000a0: 44d2 793d 310e 37bd e2f1 0a3d 5b9a 94bd
000000b0: d51d 823d ca3b 9e3c a6df af3d 7a42 78bd
000000c0: ec52 de3d 5e89 f5bc 9219 36bc 3802 a0bd
000000d0: d5c7 d03b e12d 32bc 72a1 6c3d e667 833d
000000e0: 8248 febc 4854 9c3d 146d 9cbd 000b f6bc
000000f0: abaa 2abd ae81 b23d 66a1 cd3d 380d 2abd
-0.023336738 0.009990043 0.02105855 0.026333602 0.011126729 0.07959329 0.026699163 0.0007407815
-0.024916217 -0.056376975 -0.077725604 -0.07865636 -0.05943949 -0.061550844 -0.027688967 -0.002019635
0.1327712 0.032230046 -0.018023826 -0.0013043995 -0.013186643 -0.06504966 -0.032998905 0.11253361
0.10335528 0.044714514 0.050733328 -0.0027398798 0.039491992 -0.035790153 0.027437752 -0.06483719
0.068581134 -0.050265223 0.08036633 -0.06711931 0.03773807 0.07465173 -0.021212166 0.0117763085
0.06099154 -0.04469127 0.033922084 -0.072560035 0.06353346 0.019315619 0.085875794 -0.060610272
0.1085566 -0.029972728 -0.011114495 -0.07812923 0.006371478 -0.010875196 0.057771154 0.064163014
-0.031040434 0.07633263 -0.076379925 -0.030034542 -0.041666668 0.08716141 0.1004055 -0.041516513

fc3.weight f4 [10, 64]
00000000: 40cb 663d ab22 053d e26a 80bd 82fc 25be
00000010: 2373 1b3c 9f1f 10be 2adb 70bc 2aeb c73e
00000020: 5d6e 523e edfd 04be 3996 30be 90b9 f0bd
00000030: 8862 7e3e 6e2f 733d 5073 473e b16c 18be
00000040: 3e08 6cbe bad9 d7bd 4743 efbd f8b0 f83b
00000050: a775 20be b933 6bbd c9d1 6a3e 6efc f73d
00000060: 3cc7 c63b 0b29 b03d ac5d f7bd 6254 95bd
00000070: f455 8a3e 90ed dd3c 2ee7 8ebd 6481 db3b
00000080: 226f 553d fd79 cebd 3e70 08be c883 723b
00000090: 3b81 92bb ff91 debd 2bb3 203c 94b6 853d
000000a0: 3ed1 c2bd 7e9c 163e eadb d2bd 7045 913d
000000b0: 4e9b 05be 4254 153e 25a6 74be 23de 30bd
000000c0: daf9 123d 91c4 323e 56bb 15be 3e8f a73d
000000d0: 1aad 4abd d86b 9e3e 0e7b 333d 8a1e 3f3e
000000e0: 1ec5 bebd 2721 e3bd c367 0b3c e827 cc3d
000000f0: 4315 73bd 2ffe b1bd 89e2 a33e 0050 d43e
00000100: e0eb 943d 8819 1ebd 3ae0 45bd 431c a13c
00000110: 8c6f 62bd 10f0 5d3d a254 36bd bacc 81be
00000120: 0109 073b fec3 f1bb 8f92 ff3d 3a60 17bd
00000130: 0306 613c 0638 0bbd 672a 013e 9af4 963d
00000140: 659c 883e 03a4 18be ba99 5cbd 6f97 90bd
00000150: 5aa2 573d d074 453c 947b 823d 368e 1abe
00000160: 8751 50be 7960 07be 8f10 f9bd 4966 3cbe
00000170: 7485 813e a433 1dbe 1ead c1bd 3439 8abd
00000180: b22b 2bbe dc42 23bc b893 edbd 9f10 ddbc
00000190: 024a 11be 9fbd 2e3e 332d aebd dbb5 13be
000001a0: f6ae 05be e55e 21bd 1f30 0a3e 7487 49bd
000001b0: ff32 f2bd d939 ae3e a3c2 ccbd f343 16be
000001c0: e27e 08be 4c2c 06be 8742 a23e f506 b0bd
000001d0: c030 79bc 1c9d 233d 8608 dbbd 98f1 423e
000001e0: 7d2b c5bb 2430 81bd f883 883d d221 693d
000001f0: 4687 953e 8d1f 4e3d 33f8 5dbe c2a5 e1bd
00000200: 1cf0 1e3e 047a b73d 1e70 73bd e01a 443e
00000210: 4fd2 843c 8831 0ebe 4638 abbd eb86 353e
00000220: 176d 19be cb88 bf3d 2316 193d a736 02be
00000230: 996c 8a3e 4317 7f3d 026c 863b c929 4abd
00000240: f806 fb3b 0401 5f3e da92 cfbd 20f7 fabc
00000250: 0bff c4bd 2b24 15bc e888 4cbe 5045 dd3c
00000260: 1e04 9abd a197 26bd 6e8d da3d ca3d c63c
00000270: fe9f 45be b542 c23d 664c c13d 7d80 013e
00000280: 03f3 363c 824f ebbd 6f2e 25be f231 643d
00000290: 5119 06be 6b7e b43d 4448 31be 8898 0a3d
000002a0: b961 d1bc 69c6 183d e642 a6bb 9b6c 13be
000002b0: a226 40be 6f73 24be cabe 283d 433e 0dbe
000002c0: 5204 b1bc 6d2d 83be ffef 78bd e3cf e53d
000002d0: 11f7 18bd 2723 893e 4899 0e3e 6b88 853c
000002e0: f7cc 93bd da44 163d 92d7 06bd c1e4 393e
000002f0: e1c9 7cbc 2cc2 fa3c 4332 1dbc 5099 053e
00000300: c70d e43c eaa0 92bd 0b11 8cbc a237 093e
00000310: 2032 01be 37a8 f8bd 58b2 1a3d 0535 d23d
00000320: 48f6 e6bd a0c2 0e3e bb56 0cbd 341a 46be
00000330: 5e85 70bd a73a 823d 5d6e 7dbc b4c5 38ba
00000340: c645 9b3d c85a 08be 2263 a23d fec3 633c
00000350: 28f5 13be 72a4 6cb9 ea5e d73e 86fc 423e
00000360: 65b4 5cbe 031a bcbc 377d 15be db82 05be
00000370: cad8 2b3d d426 163d a9f8 143e 1c8c 4bbd
00000380: 8a22 433d b9fd 033c 3476 eebc 765b 5f3d
00000390: b011 4c3d 682f 33bd d470 cbbd efff e13d
000003a0: afca dfbc c840 f0bc 9491 413e 74b9 1bba
000003b0: c602 2d3e eedb 65bd 3d93 66be fc1a d5bd
000003c0: 3f71 54bd 92e0 0ebc 35fc 9d3b 1c48 b6bd
000003d0: f5b0 193e 3a83 9dbd 5656 ec3d d275 953e
000003e0: 271f bbbc 2a5f d0bd 214c 8a3d d33d aabd
000003f0: 0bb0 ac3d 3a04 8cbd e2de 123d 8c1b b33d
0.056346178 0.032503765 -0.06270386 -0.16209605 0.0094879 -0.14074562 -0.01470069 0.39046603
0.20549913 -0.1298749 -0.17244805 -0.11754143 0.24842274 0.059371404 0.19477582 -0.14885212
-0.23050019 -0.10539575 -0.11682754 0.0075894557 -0.15669881 -0.057422373 0.22931589 0.12108694
0.006066231 0.08601578 -0.12078413 -0.07291485 0.27018702 0.027090818 -0.06977688 0.006698774
0.052107938 -0.10081861 -0.13324067 0.0037004817 -0.004470972 -0.1086769 0.009808342 0.06528965
-0.09512566 0.14708135 -0.102958515 0.07093322 -0.13047525 0.14582923 -0.23891504 -0.043180596
0.03588281 0.17457797 -0.14622244 0.08181618 -0.04948149 0.30941653 0.043818526 0.18663993
-0.09314941 -0.11090308 0.008508625 0.09968549 -0.05934645 -0.0869106 0.3200877 0.41467285
0.07271552 -0.038598567 -0.048309542 0.019666797 -0.05528216 0.05418402 -0.044514306 -0.25351506
0.0020604732 -0.0073781004 0.12479126 -0.036957003 0.013734343 -0.033988975 0.12613831 0.07370873
0.2668182 -0.14906316 -0.053857543 -0.07060134 0.052645065 0.012051776 0.06371227 -0.15093312
-0.203436 -0.13220395 -0.121613614 -0.18398394 0.2529713 -0.1535173 -0.094568476 -0.06749192
-0.16715887 -0.009964671 -0.11600441 -0.026985465 -0.14188388 0.17064522 -0.08504715 -0.14424841
-0.13055024 -0.03939714 0.13494919 -0.049201444 -0.11826133 0.3402851 -0.099980615 -0.14674358
-0.13329652 -0.13102835 0.3169138 -0.08595077 -0.015209377 0.039944753 -0.10694985 0.19037473
-0.006017147 -0.0630801 0.06665796 0.05691702 0.29204768 0.050323058 -0.21676712 -0.11017944
0.15521282 0.089588195 -0.059433095 0.19150877 0.016213564 -0.13886082 -0.08360343 0.17727248
-0.1498302 0.09352263 0.037374627 -0.1271616 0.27035978 0.062278043 0.004102231 -0.049356256
0.007660743 0.21777731 -0.101354316 -0.030635417 -0.09618958 -0.009102861 -0.199741 0.02701059
-0.075203165 -0.04067195 0.10671507 0.024199385 -0.19299313 0.094853796 0.094384 0.1264667
0.011166337 -0.11489774 -0.16130994 0.055711694 -0.13095595 0.08813175 -0.17312723 0.03383687
-0.025559293 0.037298594 -0.005073893 -0.14396898 -0.18764737 -0.1605966 0.041197576 -0.13793282
-0.021608505 -0.25620595 -0.060775753 0.11221292 -0.037344996 0.26784632 0.1392566 0.0163004
-0.07216828 0.036686756 -0.032920428 0.18153669 -0.015428991 0.030610166 -0.009594503 0.13046765
0.0278386 -0.07159598 -0.01709797 0.13400128 -0.12616777 -0.121414594 0.037767738 0.10264019
-0.11277443 0.13941431 -0.0342624 -0.19345933 -0.05872094 0.06358843 -0.015468207 -0.0007048503
0.075816676 -0.1331588 0.07929064 0.013901709 -0.14448988 -0.00022567975 0.420646 0.19041643
-0.2155319 -0.022961622 -0.14598547 -0.13038199 0.041954793 0.036658123 0.14547981 -0.049694166
0.04764036 0.008056098 -0.029109098 0.054530583 0.049821556 -0.043746382 -0.0993363 0.110351436
-0.027318327 -0.029327765 0.1890319 -0.00059404154 0.16895589 -0.056117944 -0.22517104 -0.104055375
-0.051865812 -0.008720534 0.004821325 -0.089004725 0.1500891 -0.07691045 0.11539905 0.29191452
-0.022842003 -0.10174401 0.06752802 -0.08312573 0.08432015 -0.06836744 0.03585709 0.087454885

fc3.bias f4 [10]
00000000: c67a 603c 6c54 e13d 4caa bd3d 78bf f3bd
00000010: 5caa dbbd 30e3 c13d cc08 cd3d c4ce 263d
00000020: ce29 edbc c49b 15bd
0.0137011465 0.1100243 0.09260997 -0.11901754 -0.10725853 0.09467161 0.100114435 0.04072453
-0.028950598 -0.036525503
